model_agePrediction_100.pth (torch, 414082 bytes, 24 tensors)

weight f4 [32, 1, 3, 3]
00000000: a46e 31be c40f 863f 05f2 a73f 40bb 343f
00000010: 7bc2 00bf ba6f da3f 9fa2 69bd 3033 2ac0
00000020: 4292 e8bf 2087 4e3f 0c26 003f f42c b63e
00000030: 9ed9 27be b71f 28bf c109 7d3f 804f 8fc0
00000040: 1884 88c0 2399 be3f 7479 70bf 7ec9 dfbe
00000050: 5120 3b3e 8d52 16be ad25 433e ff4c e03e
00000060: 005e afbe b806 963d 586a 65bf 47b2 d63e
00000070: b597 603d aa43 88bf f970 963f f552 5a3f
00000080: d8ab 6d3f bbab b73f 439d b63f 9a78 533f
00000090: cb1b 4d3b 83ec 0c3f c594 0440 f7d6 6cbe
000000a0: bc7b 21c0 fb4f e1bf 9b1c 07bf 6c16 a03f
000000b0: 3753 59c0 69f1 02c0 8f90 4cc0 c5ea 92be
000000c0: aa61 f43f db5e 7dbe 54dd 973f fa9d 0a40
000000d0: 4d79 ba3e 9fc7 5f3d eb7a b33f 9b0e 8ebf
000000e0: 6960 89bf 7940 5940 436a b83e 9d8d 15c0
000000f0: 9cf6 37bd 56cd 313f a693 85bf d71e f0bf
00000100: 12b9 813e d8c7 3d40 7edf 8bbf 20bd c0bc
00000110: 7a6d 9bbf a3fe 913f b183 e63f ba67 14c0
00000120: c27f d6bf b472 8c3f deff 673f d711 ffbf
00000130: 2c9f 4640 a5a6 f9bf 6a7c 723e bc72 963f
00000140: 14ed 4ebf a939 babf 8e73 a9bf a094 88bd
00000150: 082f 80bf 40f7 86bf 61b1 83bf 6180 4740
00000160: 1269 2c40 56b8 f33e 6ad6 d1bf f84a 1dbf
00000170: a944 94bf bbbd 743f 969a dd3d 7b80 bd3e
00000180: 5e92 1d40 519c 8f40 82d3 0b40 9a21 213f
00000190: 2a2a 1a40 c539 23c0 698c e1be 5aa0 4abf
000001a0: b81d 26c0 d333 5a3f a619 873f 55eb aa3f
000001b0: 6026 76be 31d6 06be 0b3d a03e 4c8f 86bf
000001c0: 6f34 0ebe b361 053d dfc0 7bbf 3e1f 37bf
000001d0: f0c8 84bf 7a07 04c0 f8a0 febf 9ab5 f2bc
000001e0: 5c3b 65bf 1623 18c0 4ec3 52bf d7d0 b1bf
000001f0: a692 ebbe b559 73bf 02a4 07bf 76e9 6abf
00000200: 9e65 07bf 0385 843f ad00 7bbc b94c 973e
00000210: 19fd 623f 5b60 d63b d103 043d 1c9f e1bf
00000220: 5e30 83bf e050 83bf 2b39 fa3e 0616 a43f
00000230: bec1 913f ba98 40bf 12c4 a43f e495 a33f
00000240: 8a86 db3f 26f4 9cbe 9da6 9fbf 40dd af3f
00000250: f4e8 03c0 3204 9f3d 8feb 5ebf 8de1 c8bf
00000260: dd6b 4240 878d cdbe 43bc 79bf 1c04 19bf
00000270: f115 e8be 6042 11bf c4b2 22bf f2a7 473f
00000280: 78a7 fe3e 0885 2e3f b972 50c0 b248 08c0
00000290: ed6c 5f3f abdb aa3f 6cef 993e 7d0a 2840
000002a0: 347f 133f 3510 833e 9f27 7abe 92a1 6dbf
000002b0: 8d70 82bf e6eb a23e a02a b2c0 e317 2cc0
000002c0: e39c 46bf f62b 30bf b4e7 7a3f 4707 b43f
000002d0: d6a0 5b3f 07cd a33f 89f7 c43f db20 2ec0
000002e0: 3d86 9dbf ef46 783f 4c3e 01c0 662e fbbd
000002f0: 14a5 de3f 6973 d9be 2fcd 02c0 a97c 883e
00000300: dbee 4140 44a2 fd3f 1355 223e 57eb f63d
00000310: cd24 7cbf 876e 21c0 e538 4040 6244 a33f
00000320: bacd 56bf 4464 663f 4121 02bf c64e f3bf
00000330: 9d94 ef3e dfb2 63bf d42a 01c0 103d 193d
00000340: 05c7 903d ca75 563e 5a48 423d 6e6d 673e
00000350: 0f6d 9a3e 0e53 d9bd 391e 933e ec35 093d
00000360: 0efc 1340 30ee 6f3f 4027 713f d09c e83f
00000370: bdb5 d8bf 1085 d8bf aa20 e63f 6d8f 8bbf
00000380: 0917 4ebf 64ec 1bbd 83c8 0fbf a319 0abf
00000390: 600b 5540 8019 8eba 7d71 ac3e 13a5 22bf
000003a0: 7437 41c0 a721 a43f d927 a73f 069a 3fbf
000003b0: 2c00 0f40 36e1 093f 4e38 79bf 987e f93f
000003c0: e046 e53f 85ee e3bf 5a76 f7bf 0405 1ebf
000003d0: 2f9f f5be 6f77 32be 501d 2dbf 25c2 c7be
000003e0: ed35 233e 61e0 02bd 8145 173e a718 89bd
000003f0: 3f48 923f 4087 26c0 3c05 05c0 f40a 993f
-0.17327362 1.0473561 1.3120733 0.7059822 -0.50296754 1.7065346 -0.057039853 -2.6593742
-1.8169634 0.80674934 0.50058055 0.35581172 -0.16391608 -0.65673393 0.9884301 -4.4784546
-4.2661247 1.4890484 -0.9393532 -0.43708414 0.18274046 -0.14679928 0.19057341 0.43808743
-0.34251404 0.073255 -0.8961539 0.4193289 0.05483218 -1.064565 1.1753227 0.8528283
0.9284034 1.4349283 1.4266742 0.826059 0.0031297083 0.5504839 2.0715802 -0.23128878
-2.5231771 -1.7602533 -0.52778023 1.2506843 -3.395704 -2.0459845 -3.1963232 -0.2869474
1.9092305 -0.24743216 1.1864419 2.1658921 0.3642067 0.054633733 1.4021887 -1.1098207
-1.0732547 3.39456 0.3601857 -2.3367684 -0.04491292 0.6945394 -1.0435684 -1.8759412
0.2533651 2.9653225 -1.0927579 -0.023527682 -1.2142785 1.1405834 1.8008939 -2.318831
-1.6757739 1.0972505 0.906248 -1.9927319 3.103465 -1.9503981 0.23680273 1.1753764
-0.808305 -1.4548846 -1.323839 -0.06668973 -1.0014353 -1.0544205 -1.0288507 3.1172106
2.693913 0.47601575 -1.6393559 -0.6144252 -1.1583453 0.95602006 0.108205006 0.37012085
2.4620585 4.4878316 2.1847844 0.62941897 2.4088235 -2.550401 -0.44052437 -0.7915093
-2.595564 0.8523533 1.0554702 1.3353068 -0.24038076 -0.13167645 0.31296572 -1.0512481
-0.1388719 0.032563876 -0.9834117 -0.71532047 -1.0373821 -2.0629563 -1.9892874 -0.02962761
-0.895437 -2.3771415 -0.8232926 -1.3891858 -0.4601032 -0.9505876 -0.5298463 -0.91762483
-0.5288943 1.0353092 -0.015319985 0.29550722 0.88667446 0.006542248 0.032230202 -1.7626681
-1.0249135 -1.0259056 0.4887174 1.2819221 1.138725 -0.7523304 1.2872336 1.2780118
1.7150433 -0.3065502 -1.2472721 1.3739395 -2.0610933 0.07764472 -0.87078184 -1.5693833
3.0378335 -0.4014704 -0.9755289 -0.59771895 -0.4532924 -0.56741905 -0.63554025 0.7799064
0.49737144 0.6817174 -3.257002 -2.129437 0.8727558 1.3348287 0.30065477 2.6256402
0.5761597 0.25598302 -0.24429177 -0.9282466 -1.0190598 0.318206 -5.5677032 -2.688958
-0.7758314 -0.6881708 0.980098 1.4064721 0.8579229 1.2796944 1.5388042 -2.7207553
-1.2306591 0.96983236 -2.0194273 -0.12264709 1.7394128 -0.42470863 -2.0437734 0.26657608
3.0302036 1.9815145 0.15852766 0.12056606 -0.98493654 -2.522371 3.0034726 1.2755244
-0.83907664 0.89996743 -0.5083199 -1.9008415 0.4679307 -0.8894481 -2.018239 0.03741175
0.0706921 0.2094337 0.04743228 0.22600338 0.3016133 -0.106115445 0.28733996 0.03349869
2.3122592 0.9372282 0.94200516 1.8172855 -1.6930462 -1.6915607 1.7978718 -1.0903145
-0.805039 -0.038067237 -0.5616533 -0.5394537 3.3288193 -0.001084134 0.33680335 -0.63533133
-3.0190096 1.282277 1.3059036 -0.74844396 2.2343855 0.5385927 -0.9735154 1.9491758
1.7912254 -1.7807165 -1.9332993 -0.61726403 -0.4797301 -0.17428373 -0.6762285 -0.39015308
0.1593854 -0.031952266 0.14772607 -0.06694155 1.1428298 -2.602005 -2.0784445 1.1956468

weight f4 [32]
00000000: 7729 5b3c a162 b93f cd5e 153e b79c 943e
00000010: fea8 b63f e084 e43f db2d 3a40 92a1 5740
00000020: a60b 3a40 d567 2840 6531 a03f c076 dd3f
00000030: 940b 873e 031a 6dbd 2202 17bc e2f2 a63c
00000040: 0f3a 9e3f 20ce 213d 98be da3f 7c40 ac3f
00000050: cb6e 2440 f8dd 2640 8aca f13f 138e 07be
00000060: 040d 183f 39fe 3f40 f69d f53f 2e71 4e3e
00000070: aeb5 4a40 c016 823f b947 5540 59b9 f43f
0.013376585 1.4483224 0.14586945 0.29025814 1.4270322 1.785305 2.9090488 3.3692365
2.906961 2.6313374 1.2515074 1.7301865 0.2637602 -0.057886135 -0.009216817 0.020379487
1.2361468 0.039503217 1.7089415 1.3457179 2.5692623 2.607298 1.8889935 -0.13237791
0.5939486 2.9998915 1.9188831 0.20160362 3.1673388 1.0163193 3.3325026 1.9119064

bias f4 [32]
00000000: 0c59 38be a1c3 c9bf 55c6 1bbf 6b35 9bbf
00000010: c874 01c0 f4cc 723f f169 ff3f 5e06 e53d
00000020: f210 53c0 38c1 973f 9541 8bbf 090f 41c0
00000030: 7e1a 6ebf 8dc1 5340 f163 33be d74b 52be
00000040: 219e 093e 20e3 8abe 08a0 6e3f a6e8 57bf
00000050: f333 b03f 1942 db3f e784 ec3b 37c9 46bf
00000060: 7345 103f 2948 0dbf b500 f9bf 3473 20bf
00000070: 6127 1dc0 4bfd d33e 3e22 553f 0edf 11c0
-0.18002719 -1.5762826 -0.60849506 -1.2125677 -2.0227528 0.94843984 1.9954206 0.11182855
-3.2979093 1.1855841 -1.0879389 -3.0165427 -0.93009174 3.3086884 -0.17518593 -0.20536743
0.13439228 -0.27126408 0.9321294 -0.8433937 1.3765854 1.7129546 0.0072179916 -0.7765078
0.5635597 -0.5518823 -1.9453341 -0.62675786 -2.4555285 0.41404185 0.83255374 -2.2792392

running_mean f4 [32]
00000000: 7c5b 213d 2d02 333e ae6f 1b3d 54d0 2cbe
00000010: b88d 0d3e 5544 8fbc 7840 6abc 78a5 da3b
00000020: 3bac 21bd 3d62 dfbc db39 65be f432 efbb
00000030: 666e d23d 06d8 8b3e 2b27 6ebc 8cbf 7abd
00000040: 457a ee3c 9ef9 0f3d e832 13bd a260 693e
00000050: 54ec c23c e18b 81bb 56eb 283d 7d77 edbc
00000060: 3066 c7bc 65fa 173c bd0d 5abc fb10 463d
00000070: 2045 af39 05d3 dbbb b7c6 f43c 1239 41bd
0.039393887 0.17481299 0.037948303 -0.16876346 0.13823593 -0.017488638 -0.014297597 0.0066725574
-0.039470892 -0.027268523 -0.22385351 -0.0072997753 0.10274963 0.2731325 -0.014535706 -0.06121783
0.029111037 0.035150163 -0.03593722 0.22790769 0.02379433 -0.0039534424 0.04124006 -0.02898764
-0.024340719 0.009276007 -0.0133089395 0.048356038 0.00033430103 -0.006708505 0.02987991 -0.047173567

running_var f4 [32]
00000000: d9d4 4a40 a98e f341 5ed2 2440 b858 e641
00000010: c663 9641 37db 8e40 803d ba40 e892 bf3f
00000020: c0d6 cf3f dbc9 a840 d19b 3842 8545 3b40
00000030: be75 3e41 cb27 b442 45a9 403f 7677 6540
00000040: 96ac ae3f 075e 4840 0943 8040 940b 8642
00000050: 1cc5 b040 c697 3340 fec0 ee40 096d 753f
00000060: 91a6 1c41 a1ed bd3f a910 b540 bd21 6440
00000070: 93cd ed40 4109 ed40 f1bf b440 7fff fc40
3.1692412 30.444658 2.5753398 28.79332 18.798717 4.4642596 5.8200073 1.4966707
1.6237411 5.2746406 46.152164 2.9261181 11.903746 90.07772 0.75258285 3.5854163
1.3646419 3.130739 4.008183 67.02261 5.524061 2.8061385 7.4610586 0.958695
9.790666 1.4838144 5.6582837 3.5645592 7.4313445 7.4073796 5.6484303 7.9061885

weight f4 [32, 32, 3, 3]
00000000: 3b63 9ebf 457b 35be 4d84 1b3f 2f91 94bf
00000010: 2fd7 37bf 86fc b9bf e93e a1bf 46f7 8f3f
00000020: 56d3 283f 0a8c a83e f67b e1bd fc2b 8c3f
00000030: e726 8dbf 1816 dfbf 05d8 ba3e 9141 2ec0
00000040: 3e6e 20bf 406c 62bf a488 ccbc 29ef d2be
00000050: 1a40 c8bd 7706 a5bd 81cc d1bd 1b29 223e
00000060: 60ca 41be 4ca1 e83d 4a47 5f3e ea25 8ebc
00000070: e3ef dfbe 7bf7 b9be bcb6 f1bd 0d2f d93d
00000080: 26f7 42bd b5e1 fabe 982a b4be 630d c13c
00000090: ad44 d1be def6 513f cd64 563f 3389 72be
000000a0: f96a febf 2fca 9fbf 4da8 b33e 63c7 d3bf
000000b0: 6a4d dcbf 742a 0ec0 71fc 93bf 1193 393f
000000c0: 7543 b6c0 4839 dabf 2ca1 193f ff74 d7bf
000000d0: 1c50 503f 54dc ff3f 921f c83f 614f ce3f
000000e0: 57cb 19be 7e63 fe3f ad9d 5abf 669a 25bf
000000f0: 09fa 033f a325 2ac0 f6b1 cdbf 8e92 813f
00000100: dd06 82bf ace6 623f dc92 723e a52f 0ec0
00000110: 1ae6 283f d75f 013f 7352 88bf e1a6 19c0
00000120: 8598 a7bf b853 523f 2fd4 f3bf 1b4c 0340
00000130: 5cfd 273e 3896 21be 186c d83e a2d3 1e3f
00000140: a795 543e de32 4cc0 3ff7 0fc0 7b0d 5f3f
00000150: 9cd6 80c0 91c6 0dc0 ae19 b73f 3684 8bbf
00000160: 6952 aa3f 18ca 4140 2c3a 94bd e634 33bf
00000170: 1a1f 7bbe 2a6b 03be 9c84 b23d c273 0b3e
00000180: 3bff a5bf 9807 bcbe 2a5f 95bd 51a6 8abf
00000190: 6072 853d 4460 45bf 2e67 09c0 f1ba 893f
000001a0: ebf5 09c0 19d2 74bf 7328 a1bf 9b23 b0bf
000001b0: 06d5 3f3d f24b 6cbe bde7 0abd e9ad 983e
000001c0: 8de7 c83e b33a a03e e6c3 143f 343c 443f
000001d0: 27a1 0f3f 8343 e23f 0297 74bd 1be2 933f
000001e0: 05d6 6c3f 87d1 dbbf 022b 0f3f 54fa e23e
000001f0: 400b b4bf ec13 b83e 61c4 c7be e864 0b3e
00000200: 797b e33d 2023 7abf 1701 613d 2810 8b3b
00000210: ce8d 8bbe 86d3 f13d 5e23 1d3f c72c 75bf
00000220: 7a10 e1bf d145 4dbf 4a3b 07c0 e6bf a5bf
00000230: bac3 0f3f 2a4f 7a3e d4cf 7d3e 9f57 bb3f
00000240: 75ce 7ac0 b16b 953f abac 14c0 66e8 babf
00000250: 25c7 813f 4c88 bd3e aceb ec3d 84df cd3f
00000260: a65f f3bf 9001 cbbe 6117 363c 3bbc 1d3f
00000270: e6e3 f6be 6924 b13d 4c9b 123f a452 c5bd
00000280: e130 a13e 80fa 493f 40c6 a7bf 8b90 21c0
00000290: 5e97 a6bd 1e63 98c0 854b 0dc0 64fb bcbf
000002a0: 8831 14c0 dfd2 953f 27f0 883f 8e5c 613f
000002b0: 194b 54bf 8a75 0cbb 2f13 653e 62d3 23bf
000002c0: 68c7 a53f 3270 d3be c10a cabd 6c9b a93f
000002d0: 0b1a 5c3e b544 1abf 0cb1 df3d a375 31c0
000002e0: 3551 22c0 266d c1bf 9e23 b6be 5200 71bc
000002f0: d30d 893d 3320 733f 17e1 be3e 106c 23bf
00000300: 0e1f 87be a9e4 a4bf 037c c9bf e6b6 8d3f
00000310: 0a49 01c0 6195 b9bf c365 49bf b580 413f
00000320: 9ce2 8dbe 3754 3a3f 0f43 c8be d430 57c0
00000330: 1169 57bf 782f 13c0 0ff0 43c0 2926 47bd
00000340: a5d4 003d f3df dc3c d65a a7bb 54b3 8f3d
00000350: f558 4d3c 953c 31bd 6059 053b feef 9e3d
00000360: eaae 193f 1b4a b83f 36ea e73e 99ee 0d3f
00000370: 27cd 7b3e 4859 d1be a450 de3d 1acb 8fbe
00000380: 2bb9 0c3f b5a6 a5c0 9c49 f03f 458d 8fc0
00000390: 22cd 40bf 4a30 083f bf85 e13e 88ee 32bf
000003a0: 59af 433e 80f9 b7be 37b5 5ec0 5068 1cbf
000003b0: f860 c33f e9ef 60bf 4333 60bf d754 393f
000003c0: bfc7 833d 360b babc e541 93be 905d ad3d
000003d0: 58f8 ad3d 097b c73d ca21 c9bc 71d3 e6bc
000003e0: 3cb4 053e fe86 73bb ef8b ad3d 1f6a 423e
000003f0: 8686 3d3f e50e 823f dcaa 0f40 0bd6 41c0
-1.2374033 -0.17722805 0.6074875 -1.1606807 -0.7181272 -1.4530189 -1.2597324 1.1247337
0.65947473 0.3291934 -0.11009972 1.0950923 -1.1027497 -1.7428617 0.36492935 -2.7227519
-0.62668216 -0.88446426 -0.0249675 -0.4119809 -0.097778514 -0.08057874 -0.10244084 0.15835993
-0.18924856 0.1135889 0.21804538 -0.017352063 -0.43737707 -0.36321625 -0.11802432 0.10604677
-0.04759898 -0.49000326 -0.35188746 0.023565954 -0.40872708 0.82017314 0.8374756 -0.2368515
-1.9876395 -1.2483577 0.3508934 -1.6545223 -1.7211125 -2.2213411 -1.1561414 0.7249003
-5.6957345 -1.7048731 0.60011554 -1.6832579 0.8137224 1.9989114 1.5634634 1.6117975
-0.15018974 1.9874113 -0.85396844 -0.6468872 0.515534 -2.6585472 -1.6069934 1.012285
-1.0158345 0.8863323 0.23688835 -2.221658 0.6597611 0.50536865 -1.0650162 -2.4008105
-1.309342 0.82158995 -1.9049128 2.05152 0.16405243 -0.1577996 0.4226997 0.62041676
0.20760213 -3.1906047 -2.2494657 0.87129945 -4.0261974 -2.2152445 1.4304712 -1.0899723
1.33064 3.0279598 -0.07237658 -0.7000259 -0.24523583 -0.12833849 0.087166995 0.13618377
-1.2968515 -0.36724544 -0.07293542 -1.0832006 0.06515956 -0.77100015 -2.1469226 1.0760175
-2.1556346 -0.95633084 -1.2590469 -1.3760866 0.046834014 -0.23075846 -0.03391241 0.29820183
0.3923916 0.31294784 0.5811142 0.7665436 0.56105274 1.7676853 -0.059714325 1.1553377
0.9251407 -1.7173318 0.55925 0.4433161 -1.4065933 0.359527 -0.39017013 0.13612711
0.11107535 -0.97709846 0.05493268 0.0042438693 -0.27256626 0.11807923 0.6138209 -0.9577145
-1.7583153 -0.80184656 -2.1129937 -1.2949188 0.5615803 0.24444261 0.24786311 1.4636115
-3.9188511 1.167349 -2.3230388 -1.4602172 1.0138899 0.3701805 0.11568388 1.6083837
-1.9013565 -0.3964963 0.011113972 0.6161534 -0.48220748 0.08649523 0.57268214 -0.09634903
0.31482604 0.7889786 -1.3107376 -2.5244472 -0.0813434 -4.7620993 -2.2077343 -1.4764218
-2.3155231 1.1704978 1.0698289 0.8803185 -0.8292709 -0.0021432363 0.22370599 -0.6399442
1.2951479 -0.41296536 -0.098653324 1.3250556 0.2149431 -0.6026109 0.10922441 -2.772805
-2.5362065 -1.5111434 -0.3557405 -0.014709549 0.0669209 0.9497101 0.37281105 -0.63836765
-0.2639088 -1.2882282 -1.574097 1.1071441 -2.020083 -1.4498712 -0.786709 0.75587016
-0.27711952 0.7278475 -0.39113662 -3.3623552 -0.84144694 -2.2997723 -3.061527 -0.048620377
0.031452794 0.026962256 -0.005107264 0.07016626 0.012533416 -0.043270666 0.002034746 0.077606186
0.6003252 1.4397615 0.45295876 0.55442196 0.24589978 -0.4088843 0.10855225 -0.28084642
0.54970044 -5.1766 1.8772464 -4.485995 -0.7531301 0.53198683 0.44047353 -0.6989522
0.19109859 -0.3593254 -3.4798105 -0.6109667 1.5263968 -0.87866074 -0.8757822 0.7239508
0.06434583 -0.022710424 -0.2876121 0.08465111 0.084946334 0.09740264 -0.024552245 -0.028176995
0.13057035 -0.003715932 0.08473956 0.18985794 0.7403339 1.0160795 2.2448034 -3.0286891

weight f4 [32]
00000000: 28e4 2240 b659 d23f 6eee 0440 1cd5 0140
00000010: 460d 1340 37c9 1940 893b f03f f3ca 1040
00000020: 406e 773e 4bff 1140 403a 1340 e446 cd3f
00000030: 8820 1440 ef52 0940 653a 1e40 c326 b23f
00000040: e138 2940 22c9 0640 600e bc3f a201 1540
00000050: a119 fe3f b263 f93f 477a 1240 cfef ed3f
00000060: d171 de3f 8744 d33f 7853 b73f 5023 973f
00000070: 5265 2940 fcf1 de3f d4a4 c13f ab44 2640
2.5451756 1.6433628 2.0770526 2.0286322 2.2976851 2.4029062 1.8768169 2.262387
0.24163151 2.2812068 2.3004303 1.6037259 2.3144855 2.1456869 2.4723141 1.3918079
2.6440966 2.1060262 1.4691887 2.3282247 1.9851571 1.948355 2.2887132 1.8588809
1.7378484 1.6505288 1.4322348 1.1807652 2.646809 1.7417598 1.5128427 2.5979412

bias f4 [32]
00000000: 5df7 babf 4a6d ebbf b5a6 ebbf d8ad 97bf
00000010: 476d eabf 2ee9 c2bf 510c debf 966b d9bf
00000020: 061b 24bf 89d6 71bf c9b2 3ac0 6dfb eebe
00000030: 7814 f7bf 2218 4abf eb11 f5bf d8f0 9bbf
00000040: 945d bebf 9f63 22bf 5cda 88bf 746b f1bf
00000050: 93e1 acbf 5d14 56bf f5cd 99bf dbe1 95bf
00000060: 1c67 d1bf e8ea cbbf e530 0fbf a72a 7dbf
00000070: c1fc aabf 93df 6abf 25ec 2ec0 dc04 bdbf
-1.4606739 -1.8392727 -1.841025 -1.1849928 -1.8314599 -1.5227411 -1.7347509 -1.6985958
-0.64103734 -0.9446798 -2.9171622 -0.46676198 -1.9303122 -0.78943074 -1.9146093 -1.2182875
-1.4872308 -0.6343326 -1.0691638 -1.8860917 -1.350634 -0.8362482 -1.2015978 -1.1709551
-1.6359591 -1.5931063 -0.5593398 -0.9889321 -1.3358384 -0.917474 -2.733163 -1.4767108

running_mean f4 [32]
00000000: 272a b5c2 b069 abc1 0a7e 85c2 0d9f 7dc2
00000010: 5978 65c2 a510 e2c2 7014 6ec2 9403 84c2
00000020: cac7 6fc1 e0ae c9c1 a90d 0fc2 bc86 e9c2
00000030: f4f8 e2c2 ab30 6cc2 6660 8cc2 62ab 77c2
00000040: 1673 aec2 dc95 b840 1713 cdc2 22d3 7ac2
00000050: 2e95 a5c2 4f9e 69c2 db36 15c2 e332 9bc2
00000060: 8278 62c2 c4bf 11c2 3659 c8c2 8ae9 47c2
00000070: 2c7b 53c2 3323 6dc1 8f37 b742 8803 8cc2
-90.58233 -21.426605 -66.74617 -63.405323 -57.367527 -113.03251 -59.51996 -66.00699
-14.986277 -25.210388 -35.76334 -116.76315 -113.48624 -59.047527 -70.18828 -61.917366
-87.22478 5.7682934 -102.537285 -62.706184 -82.79137 -58.4046 -37.30357 -77.59939
-56.617683 -36.43727 -100.17424 -49.978065 -52.870285 -14.821094 91.60851 -70.0069

running_var f4 [32]
00000000: b799 5745 c184 3645 ab78 2845 0e4d 8e45
00000010: 035e 1345 3f51 8a45 80e1 0945 959f 2c45
00000020: e70a 0343 1938 5845 d9eb 0645 ea9a 8d45
00000030: e94a 4f45 6889 3d45 40ac 2d45 2812 c245
00000040: db11 1a45 f4cc 4645 c776 9f45 07d8 6145
00000050: bb38 5845 5433 8245 9ad6 1245 e35c 5545
00000060: db9c 1c45 b6c8 3a45 437d 8b45 f3b6 7445
00000070: b917 4045 1ef6 3b45 132a 3b45 9ba4 4345
3449.6072 2920.297 2695.5417 4553.632 2357.8757 4426.156 2206.0938 2761.9739
131.04259 3459.506 2158.7405 4531.3643 3316.682 3032.588 2778.7656 6210.2695
2465.116 3180.8096 5102.847 3613.5017 3459.5457 4166.416 2349.4126 3413.8054
2505.8035 2988.5444 4463.6577 3915.4343 3073.4827 3007.3823 2994.6296 3130.2878

weight f4 [64, 32, 3, 3]
00000000: 01c4 81bf 06f9 d6be 9c49 013f a6fd 1040
00000010: 0be3 bebf b2ca e5bf c6eb 333f e400 f53f
00000020: 3a5a 853f 96e8 5b3f 2428 3140 7af6 1540
00000030: de14 97c0 8783 09c0 7994 5fbf 4654 b43f
00000040: 40c7 49be a3f9 2ac0 d7ac d3c0 b88a b4c0
00000050: 74d3 87c0 9238 1240 b1d9 fbbe d297 b1bf
00000060: 6f5d 3240 d102 f93f d23f a2bf d994 79be
00000070: 9650 a73e c479 32bd 213a c93f a47a 97be
00000080: 996a d2bf 5291 97bf 7c5b 963f 0a68 e43f
00000090: 04ad 4e3d 94d3 a7bf 2833 15c0 a039 97bf
000000a0: 7486 1840 fe6f 673f 9f43 11bf 7896 4e3d
000000b0: 0f28 0dbf 806e b83e a301 33c0 dba9 a5c0
000000c0: ce36 41bd 7938 70be 4375 a33e 015b db3f
000000d0: 47fe 0040 527b 4540 b963 503e 33f7 0040
000000e0: b1ff a3bf 4009 98bf ac16 49c0 3d8d 07c0
000000f0: 9cd8 aebf 3edd 97be 47bd 39bf 9b7d a73f
00000100: a967 afbd e49e 38c0 833f 953f d147 fbbf
00000110: b768 ccbf 8516 3fbf 342a 44bf a6d4 853e
00000120: 30f7 033e c7c1 453e 7b05 143e 8d1d b1bc
00000130: 906c 31bd 0432 c23d f085 e83c e8bd 8e3c
00000140: 96a1 863d 10ed a83f d8eb f13f 117a b63f
00000150: 5b39 7abf 2b6b 0040 bcbf d23f 750b d0bf
00000160: d180 e4bf 46bb 333e e932 a4bf f6f7 cbbf
00000170: a113 5c3f 957a 25c0 9d82 e0bf 4fdd 8abf
00000180: 1110 aa3e af8a 55bf 0c80 84c0 536a a8bd
00000190: 7207 d3bf f1b9 50be 2c26 88bf 5a3b 91bf
000001a0: 6726 63bf bec0 f9bf 2bf1 36bf 86ce 2f40
000001b0: f078 2e40 0b9d 953e 80bb aebe db4d 1fc0
000001c0: 4f2f 663e ff51 1140 a75d 3e40 0152 0c3f
000001d0: 9a39 583f e326 2cbf aba2 31bf 59f1 e23f
000001e0: af10 e3bf fe26 62bf dc76 47bf d9df 02c0
000001f0: b336 0e3f ca62 1740 bec0 91bf cfb5 d13f
00000200: 5cd2 3640 7eb8 2bbe 2a09 853f 3851 b7bf
00000210: cb5d 21c0 b343 eebe 34bf 81c0 2b49 2fbf
00000220: 0a98 fbbe ae16 693e 9301 7fbf 8f78 a53e
00000230: 7ddb 25c0 1756 87bd 938e e83f 8eeb 343f
00000240: 806b 9c3f 9f00 0e40 3d1f f5be 3e0c ddbf
00000250: b3b5 94be c162 1ebe 4da7 eb3f e4a6 503f
00000260: 62f5 4d3f 9b60 cebf a218 98be 8a0f 0e3f
00000270: f7b7 b8bf 7be0 073f 6328 c2bd 8da3 06c0
00000280: fb54 41c0 aa14 35c0 19a9 5ac0 ca8a 4cc0
00000290: a2c6 cabd 5429 20bf 19c1 48c0 90e7 7ec0
000002a0: a19f b8bd 69f1 b2be f880 d93d e6cf b93f
000002b0: 8d39 38bf 8d79 72c0 7462 f23d 806e 6b40
000002c0: c728 c33f d005 1dc0 3113 6ac0 bd61 8bbf
000002d0: 9e6c 563f 2345 f13f 7727 1640 497d 853e
000002e0: cb92 06c0 9b66 cebf 2054 a23f 7f12 0abf
000002f0: 2f2d b9bf 569d a93f 8b21 07c0 f237 f4be
00000300: b0cb 1a40 fe7a 11bf 3c3d 363f dde0 babf
00000310: a7c9 b2bf 8954 133e 148c cdbf 9c3e 2b40
00000320: 79e0 7f3f 44d6 36c0 e3c1 b93e 6855 87bf
00000330: 5e38 d13f 9c91 f13f a418 703e f1fa d83f
00000340: a01f 0b3f 14f2 c63f b1de 67bf 6a5a 6dbf
00000350: 1bf8 bcbf 0cbe 723e 47ab 9abf ebb4 7c3f
00000360: b60a 913f 854b 4fbe c91f 7c3e b5da ccbf
00000370: 48e7 f5bf a93c 77bf fcbf 163f cbfc 4c3e
00000380: 1496 a03f 4364 30bf 9390 f9be 1108 a43f
00000390: 5e30 933f 6672 763e dece 54bf 5dc7 ac3f
000003a0: db3f f23f 1d59 87bf aaa6 a93e 1101 803f
000003b0: 0b97 b93f be90 413f a3a8 7f3e 36c6 a3be
000003c0: 38d2 9d3f 197a 82bf 5867 c5be 371b 6b3f
000003d0: c497 513f fc33 3040 a1c2 cb3e 4302 46bf
000003e0: 7e15 34be ab7c 6f3e aa9a 5fbe a4e1 f5be
000003f0: c410 4b3f 7453 3b3d cdce 23bf 45d3 b83f
-1.0137941 -0.41986865 0.50502944 2.2654815 -1.4913038 -1.7952483 0.70281637 1.9140897
1.041816 0.8590177 2.768075 2.3431687 -4.7212973 -2.1486528 -0.87335926 1.4088218
-0.19704914 -2.6714866 -6.6148486 -5.6419334 -4.244562 2.2847028 -0.49189523 -1.3874457
2.7869527 1.9453984 -1.2675726 -0.24373187 0.3267867 -0.043573156 1.5720865 -0.29585755
-1.6438781 -1.1841223 1.1746669 1.784425 0.05045797 -1.3111444 -2.3312473 -1.1814461
2.3832064 0.9040526 -0.56743807 0.050436467 -0.5513925 0.36021805 -2.796975 -5.1769843
-0.047171406 -0.23459043 0.319254 1.7137147 2.0155199 3.0856519 0.20350541 2.0150878
-1.2812406 -1.1877823 -3.1420088 -2.1179955 -1.3659854 -0.29660982 -0.7255444 1.3085207
-0.085646935 -2.884698 1.1660007 -1.9631292 -1.5969456 -0.7464374 -0.76626897 0.261388
0.12887263 0.19312201 0.14455216 -0.021620536 -0.043316424 0.09482196 0.028384179 0.017424539
0.06573789 1.3197346 1.8900099 1.4256002 -0.9774377 2.006541 1.6464763 -1.6253496
-1.7851812 0.17551908 -1.2828037 -1.5935047 0.8596745 -2.5856068 -1.753986 -1.0848788
0.33215383 -0.8341474 -4.1406307 -0.08223405 -1.6486647 -0.20383431 -1.0636649 -1.1346238
-0.8873047 -1.9511945 -0.71461743 2.7469802 2.7261314 0.29221377 -0.34127426 -2.489127
0.22478984 2.2706296 2.974466 0.5481263 0.84462893 -0.67246836 -0.69388837 1.7729903
-1.7739466 -0.8834075 -0.7791574 -2.0449126 0.55552214 2.3654046 -1.1386945 1.6383609
2.8565893 -0.16769597 1.0393422 -1.4321661 -2.5213497 -0.46536025 -4.05459 -0.6847102
-0.49139434 0.22762558 -0.9961178 0.3231854 -2.5915215 -0.06608217 1.816851 0.7067193
1.2220306 2.218788 -0.47875395 -1.7269361 -0.29044876 -0.15467359 1.8410431 0.81504655
0.8045255 -1.6123232 -0.29706293 0.5549246 -1.4431142 0.53076905 -0.094803594 -2.1037323
-3.0208118 -2.8293862 -3.416571 -3.195971 -0.099011675 -0.6256306 -3.1367857 -3.9828835
-0.09014822 -0.34949806 0.10620302 1.451657 -0.71962816 -3.7886689 0.11835185 3.6786194
1.5246819 -2.4534798 -3.6574214 -1.0889202 0.83759487 1.8849224 2.3461587 0.26072147
-2.1027095 -1.6125063 1.2681923 -0.5393447 -1.4466914 1.325114 -2.1114223 -0.47698933
2.418682 -0.56828296 0.71187186 -1.4599873 -1.396779 0.14387716 -1.6058373 2.6756964
0.99951893 -2.8568277 0.36280736 -1.0572939 1.6345327 1.8872561 0.234469 1.6951581
0.5434513 1.5542626 -0.90574175 -0.92716086 -1.4763216 0.2370531 -1.208352 0.9871356
1.1331394 -0.20243652 0.246215 -1.6004244 -1.9211206 -0.96576935 0.58886695 0.20018308
1.25458 -0.6890299 -0.48743114 1.2814962 1.1499135 0.24067077 -0.83128154 1.3498341
1.8925737 -1.057407 0.33134967 1.0000325 1.449922 0.75611484 0.24966674 -0.3198716
1.2329779 -1.0193511 -0.38555408 0.918384 0.818722 2.7531729 0.39796928 -0.773472
-0.17586324 0.23387401 -0.21836343 -0.48023713 0.7932246 0.045733884 -0.6398743 1.4439474

weight f4 [64]
00000000: e252 f13f d636 de3f 23ca d73f 490a 0140
00000010: 15f2 f03f c54f dc3f 2a3e 0540 197e 0540
00000020: 6ace eb3f d341 db3f 6c3b c83f 347c df3f
00000030: dc92 e13f ddc5 0940 80d8 fe3f 0c0c ea3f
00000040: 328e d53f 53c1 b03f e790 b23f d833 d73f
00000050: 5386 d03f dfdf f03f eea8 0040 d46a f03f
00000060: 0fde f83f d8b2 0040 4973 0c40 a988 d93f
00000070: 4641 e83f 06b7 0040 d98f 0140 9f0f f93f
00000080: da53 0540 d1dd e83f 55ea f53f 1016 cd3f
00000090: 989f dd3f 5cf0 d03f f0ec 0640 8cac ca3f
000000a0: 3d65 d43f fe44 0840 27e8 e03f fe17 a33f
000000b0: e5aa 0440 0ceb 0140 316a 0440 e862 d43f
000000c0: c106 0740 8d4d de3f 1c6c dc3f 8892 d23f
000000d0: 2c03 0440 3ee5 e53f 5788 f13f f33e da3f
000000e0: 2763 d33f 1383 0a3e 7f62 a63f c222 c53f
000000f0: eaca 1940 b82b 0140 cde0 f63f 322a f23f
1.8853419 1.7360485 1.6858562 2.0162528 1.8823878 1.7211844 2.0819192 2.0858214
1.8422368 1.7129463 1.5643134 1.7459779 1.7622943 2.1527016 1.990982 1.8284926
1.668402 1.3808998 1.3950471 1.6812696 1.6290992 1.881832 2.0103106 1.8782601
1.9442767 2.0109158 2.1945364 1.699483 1.814492 2.0111709 2.0244048 1.9457892
2.083243 1.8192693 1.9212137 1.6022358 1.7314329 1.6323352 2.1082115 1.5833907
1.6593395 2.129211 1.7570847 1.2741697 2.0729306 2.0299711 2.0689814 1.6592684
2.1097872 1.7367417 1.7220492 1.6450968 2.0626936 1.7960584 1.8869733 1.705046
1.6514634 0.13526563 1.2998809 1.5401232 2.40301 2.0182934 1.9287354 1.8919127

bias f4 [64]
00000000: 7915 0bc0 5ca3 47bf d024 f8bf 511b f6bf
00000010: f662 10c0 ec47 a2bf 7b1f 03bf 1fa6 fabf
00000020: fe30 fabf b097 cebf de10 9dbf e873 12c0
00000030: 2bc7 ddbf 7b1f 07c0 19dd b7bf f22e fdbf
00000040: a3b0 0cc0 3a31 7cbf 832c dbbf ba19 d3bf
00000050: 916d d3bf 2dca efbf c615 10c0 5711 73bf
00000060: ebb0 c3bf 8abf ddbf 7325 dfbf 3386 aebf
00000070: da5d 6ebf e9d1 e7bf f1b8 a1bf 18f6 f9bf
00000080: ca0e 9cbf ed0b 9fbf c600 f1bf 9e2f c1bf
00000090: 6087 b3bf 1f89 07c0 c0e7 f3bf cb03 f9bf
000000a0: a884 0bc0 317f d1bf d6ca 02c0 5c43 49bf
000000b0: e991 d7bf c8b5 18c0 acda fbbf 3dda 2fc0
000000c0: 7c48 13c0 9711 0abf dfe8 12c0 ba91 06c0
000000d0: abea 17c0 7be5 f6bf f2ae 1fc0 89ef 0bc0
000000e0: 73bb 14c0 d926 41bf 878a 1bc0 4f8e 18c0
000000f0: de05 13c0 2575 80bf 2d69 eabf fead ebbf
-2.1731856 -0.7798364 -1.9386234 -1.9227086 -2.25604 -1.2678199 -0.5121991 -1.9581946
-1.9546201 -1.6140041 -1.2270772 -2.2883244 -1.7326406 -2.1112964 -1.4364349 -1.9779952
-2.198281 -0.98512614 -1.7122959 -1.6492226 -1.6517812 -1.8733574 -2.251329 -0.94948334
-1.5288366 -1.7324078 -1.7433304 -1.3634704 -0.93111956 -1.8110934 -1.2634565 -1.9528227
-1.2192013 -1.2425514 -1.8828361 -1.5092657 -1.4025688 -2.1177442 -1.90551 -1.9454283
-2.1799717 -1.6366941 -2.0436301 -0.7861841 -1.6841403 -2.386095 -1.9676108 -2.7476952
-2.301299 -0.5393309 -2.2954633 -2.1026444 -2.373698 -1.9288782 -2.4950528 -2.186495
-2.323941 -0.754499 -2.43033 -2.3836858 -2.297233 -1.003575 -1.8313347 -1.8412473

running_mean f4 [64]
00000000: b270 fac1 6ac6 b6c1 e462 b3c1 fc4f 02c2
00000010: be90 f5c1 a3b4 c3c1 473e adc1 dcbf a9c1
00000020: aab7 d5c1 b702 c5c1 d3cf d6c0 7d9d d0c1
00000030: 067e fcc1 b8fd edc1 296f b5c1 fd0f f2c1
00000040: 60b5 9140 a547 9fc1 6256 40c1 32dc fcc1
00000050: d684 1ec2 773e e3c1 611b 9cc1 de37 2fc2
00000060: 2adc ccc1 5c8e d2c1 c411 dcc1 9f10 c7c1
00000070: 8a92 a5c1 8259 2cc2 d6a7 c8c1 fc5c 08c2
00000080: 478e 01c2 9767 9ec1 ca6b 0cc2 a9ec bec1
00000090: a262 abc1 7a06 22c1 fbfc c1c1 d507 b7c1
000000a0: 2f4b d7c1 62d1 d2c1 d2b5 06c2 33df 41c1
000000b0: 42de cfc1 2d78 10c2 9110 bec1 be1c 4bc1
000000c0: cf0d 79c1 3029 ccc1 7a51 0ac2 dd83 93c1
000000d0: cfbc efc1 eeb8 36c2 235b 0bc1 c248 0ac1
000000e0: a6bd 4b40 89fa 2fc1 63b4 e740 3371 dec1
000000f0: fa55 16c2 c822 5cc2 63da ccc1 76bd 85c1
-31.305027 -22.846882 -22.423286 -32.57811 -30.695675 -24.463202 -21.655409 -21.218681
-26.71468 -24.626326 -6.712869 -26.076899 -31.561535 -29.748886 -22.679277 -30.257807
4.5533905 -19.909983 -12.02109 -31.607517 -39.629723 -28.4055 -19.513369 -43.804558
-25.607502 -26.319511 -27.508675 -24.883116 -20.696552 -43.08741 -25.081951 -34.090805
-32.388943 -19.800581 -35.105263 -23.865557 -21.42316 -10.126581 -24.248526 -22.878824
-26.91171 -26.352238 -33.67756 -12.116992 -25.983524 -36.11736 -23.75809 -12.694517
-15.565871 -25.520111 -34.579567 -18.439386 -29.967192 -45.680595 -8.70975 -8.642763
3.1834502 -10.998666 7.24077 -27.805273 -37.58396 -55.033966 -25.606634 -16.71751

running_var f4 [64]
00000000: b130 6f44 344c 8e44 5f8f 6f44 8ef5 8844
00000010: bf98 8a44 f9af 8b44 95fb 8744 a029 6744
00000020: f33a 8544 5a62 4444 596a 5544 bbbd 2c44
00000030: 7256 8344 77a6 ce44 bda0 5544 9b09 5744
00000040: 934a 4044 56bf 5244 49da 5c44 e136 7b44
00000050: cf69 9544 f5aa 8644 152e 4644 0b01 b944
00000060: 0ba9 8944 ea96 5644 5dec 7144 aa1e 7444
00000070: b080 6444 0bf5 9e44 62f2 9544 2ce8 a344
00000080: e41d a344 21c7 6444 391b a444 67dd 3c44
00000090: b37b 6b44 9442 3644 941c 9444 fef8 3a44
000000a0: 3661 5e44 63c0 5444 9ac5 4144 ab13 5d44
000000b0: c2ff 8144 b8e3 7844 6a47 6944 ee95 1f44
000000c0: 2241 6244 ab40 8944 bb0c a744 4097 4544
000000d0: 706a 9a44 9179 9844 49b0 3244 abb2 2644
000000e0: 90a1 1944 77d3 7d42 a40d 1f44 5aed 8744
000000f0: 2ec1 8d44 a66f e244 e0e4 6544 711b 6a44
956.7608 1138.3813 958.2402 1095.6736 1108.7733 1117.4991 1087.8619 924.6504
1065.8422 785.53674 853.6617 690.96454 1050.7014 1653.202 854.51154 860.1501
769.1652 842.9896 883.4107 1004.8575 1195.3065 1077.3424 792.72003 1480.0326
1101.2826 858.35803 967.6932 976.4791 914.01074 1271.6576 1199.5745 1311.2554
1304.9341 915.1114 1312.8507 755.4594 941.9328 729.0403 1184.8931 747.8905
889.5189 851.00604 775.0875 884.3073 1039.9924 995.5581 933.11584 638.34265
905.0177 1098.0209 1336.3978 790.3633 1235.3262 1219.799 714.75446 666.7917
614.5244 63.45651 636.21313 1087.4172 1134.0369 1811.489 919.5762 936.4288

weight f4 [64, 64, 3, 3]
00000000: 3c3f aebf 7117 84bf 84ab 02c0 6f1d e53f
00000010: 92df 62bf f352 7cbf b785 06bf 3d19 ae3f
00000020: e1b0 c13f 2016 40c0 6e45 2cc0 1641 29c0
00000030: db64 3f3d 1e34 b5bf 3de0 0bc0 9149 1240
00000040: d7e8 1bbf 4af5 cbbf 9e24 0540 1d22 1240
00000050: f7b1 2040 e64a b2be 5a9d 713f 46fc 56bd
00000060: e5ef 77bf 68a8 23c0 ee09 80c0 9077 f9bf
00000070: ec7b ba3e 4875 583f c526 0fc0 7f1c 0ebe
00000080: 67fa cc3f dd36 0dc0 70b3 9fbf 2076 a8bf
00000090: 43b3 bb3f ae29 b23e 2c62 e0bf a533 7940
000000a0: 21a1 863f dca0 c5bf 3731 5740 6496 d53f
000000b0: 7374 ff3b da1d 8abe 9429 babf c082 79bf
000000c0: edef c9bf bf09 80bf 34aa 2c3f b415 8dbe
000000d0: 0f9f cc3f fe82 2340 44c8 0ac0 0fb5 5ec0
000000e0: e915 adbf 8551 55c0 098f f1bf e0c1 393f
000000f0: b227 0cc0 0e5e 703f a48c a43f 8649 a8bf
00000100: 16e8 95bf a62a 2fbf 18fa b7bf c2d0 e03e
00000110: b8cb 6dbf 8fa5 b23f 19e0 7b3f 66ea 2140
00000120: e7ca 83bf 20cd 9c3f 9855 b43f 30d5 0ec0
00000130: c00c 0dbf c448 c33e a953 3ec0 8bcb debf
00000140: e6da 4fbe 5e6a c3bf 833e a1bf 970c 1cbf
00000150: bed0 683f 4534 0e3f 482b 30be 845f 5c3f
00000160: 74e7 34be 2e4e 15bf 7e2a bcbf 5dc9 30bf
00000170: bbb9 173e c0cb d8bf 8819 63bf a60f 84bf
00000180: ee49 6d3e 5730 a9bf 86c0 cfbf 9515 6340
00000190: ab18 a53f b3d9 72bf 3864 4840 4a24 d33e
000001a0: ac1e 58bf 138d ff3f a954 f93f f700 853f
000001b0: 03a8 47c0 8f0f 3dc0 2f8a 9a3f b836 3f3f
000001c0: 6e9d 7fbf cf65 713f 7276 29bf a522 71bf
000001d0: 72aa fa3f d55a ce3e b43d 6a3f 53f6 d93f
000001e0: 102e 92bf 06cd 00c0 f6ad 85bf 8294 c6bf
000001f0: 30da bebf f1d0 20bf 11ed edbf dfb7 f2bf
00000200: 2bf7 3c3f 28d6 e8be 4170 e23e fdc6 763f
00000210: 4ed7 a4bf 7d24 7e3f 125b 0240 7017 a33f
00000220: 3198 363f 5387 02bd 6d95 12c0 1968 cbbf
00000230: 0efa f83f 6a04 953d d412 0440 1a7e f53f
00000240: d0cf 7fbf 1323 0fbf 63c5 96be f4ad 75bf
00000250: 5d8c 043d bc1a 483f 1823 32c0 033e 30bf
00000260: 2031 21bf 2519 1740 e8b7 a93f 1e97 2940
00000270: 0945 0240 0fa8 993f 6c87 703f e03f 093e
00000280: 2d48 a5be d4f3 76bf 6a69 813c 8dd1 b3bf
00000290: 0d7b 95bf 2094 57c0 5db7 c1bf 0f59 10bf
000002a0: 8302 3ebf d9e2 dd3e 2e52 98bc ec7c d6bf
000002b0: 7291 24c0 c3b5 303f 3dae 73bf 6736 dfbe
000002c0: 29ed 1bc0 b259 5cbf 41c5 d73e eb8d cd3f
000002d0: 7199 be3e f5fc 1240 f902 2c40 cc24 a73e
000002e0: 94c5 873f e800 9b3f de81 7bbf 80c3 b4be
000002f0: 33e5 9a3e 527b b9bf 5ffe 2dbf 14d5 84bf
00000300: b198 2b40 695f 1440 f9cd b73f 7d53 2fbf
00000310: 6379 bd3e 30f4 2f3f bfed 42c0 b7a3 f7bf
00000320: 5cf9 afbf 9ccc debf 56a8 bbbf 64aa 08c0
00000330: b5fb b13f a64c 7a3f 0c5d d53d 93eb 13c0
00000340: 50b7 33be 1fef ef3d 81c9 95bf f724 0cc0
00000350: 30a1 f5bf c4f0 3ebe 2d7e b5bf 2bc6 54c0
00000360: a6e6 8bbe 41af e0bf da1c 8abf 2248 69bf
00000370: b931 95bf a923 b6bf 9cb3 f9bf f293 343f
00000380: cbc0 1340 a5fb 093f 21d0 f6bf 9509 ac3f
00000390: 1352 42bf bcb2 1cc0 cc1c ccbf 32a8 6c3f
000003a0: 4cca bf3f 0444 2fbb 2fdd 993f 0c5c 45bf
000003b0: 9861 edbf 0f7a 6f3f a153 c53e c15c 653f
000003c0: 662c 483e 9713 5abf 17c9 0040 7fab edbf
000003d0: 5810 12c0 5b2a 59c0 9b7b 9fbf 7c85 b0bf
000003e0: fc3e fbbf 6c7c a83e 2b9c 073f d9b6 0cc0
000003f0: 716a b13f 2f17 473f c15a 25bf 9ef4 7fbf
-1.3613048 -1.0319654 -2.0417185 1.7899607 -0.8862239 -0.9856407 -0.5254778 1.3601452
1.5132104 -3.0013504 -2.6917377 -2.6445975 0.046727043 -1.415653 -2.1855614 2.2857401
-0.6090216 -1.5934231 2.08036 2.283332 2.510862 -0.34822768 0.94380724 -0.05248668
-0.96850425 -2.5571537 -4.001212 -1.9489613 0.3642267 0.84553957 -2.2367413 -0.13878058
1.6013917 -2.2064736 -1.2476635 -1.3161049 1.4664081 0.34797424 -1.752996 3.8937771
1.0517923 -1.5439715 3.3623788 1.668652 0.0077958643 -0.269759 -1.4543939 -0.97465134
-1.5776345 -1.0002974 0.6744721 -0.2755562 1.5986041 2.5548701 -2.1684732 -3.479801
-1.3522311 -3.3331006 -1.8871776 0.72561455 -2.1899228 0.93893516 1.285542 -1.3147438
-1.1711452 -0.6842445 -1.4373198 0.4390927 -0.92888975 1.3956774 0.9838882 2.5299315
-1.0296296 1.2250099 1.4088621 -2.231762 -0.5509758 0.38141453 -2.9738562 -1.7405866
-0.20298347 -1.5266836 -1.2597202 -0.6095671 0.90943515 0.55548507 -0.1720401 0.86083245
-0.17666417 -0.5832242 -1.4700468 -0.69057256 0.14816944 -1.693718 -0.8871083 -1.0317276
0.23172733 -1.3217877 -1.6230628 3.5481923 1.2898153 -0.9486343 3.1311169 0.41238624
-0.844218 1.9964927 1.9478961 1.039092 -3.1196296 -2.9540746 1.207342 0.7469287
-0.99849594 0.9429597 -0.6619636 -0.9419349 1.9583266 0.40303674 0.915004 1.7028297
-1.1420307 -2.0125136 -1.0443714 -1.5514071 -1.4910336 -0.6281882 -1.8587972 -1.8962363
0.7381465 -0.45475888 0.44226268 0.9639738 -1.2878206 0.99274427 2.0368085 1.2741528
0.71325976 -0.031867336 -2.2903702 -1.5891143 1.9451311 0.072762325 2.0636492 1.9179108
-0.9992647 -0.55912894 -0.2944747 -0.95968556 0.032360423 0.78165793 -2.783392 -0.6884462
-0.62965584 2.3609097 1.3259249 2.6498485 2.0354636 1.2004412 0.9395664 0.13403273
-0.32281628 -0.964658 0.015797336 -1.4048325 -1.1678177 -3.3684158 -1.5134083 -0.5638589
-0.7422258 0.43337134 -0.018593874 -1.6756873 -2.5713773 0.69027346 -0.9518774 -0.43596193
-2.43635 -0.86074364 0.4214268 1.6058935 0.37226442 2.2966893 2.6876814 0.3264526
1.0607171 1.2109652 -0.98245037 -0.35305405 0.3025299 -1.4490759 -0.67966264 -1.0377526
2.6811945 2.3183234 1.4359733 -0.6848677 0.37006673 0.68731976 -3.0457609 -1.9346837
-1.3747973 -1.7406192 -1.4660747 -2.1353998 1.390494 0.97773206 0.10418138 -2.3112533
-0.17550397 0.117155306 -1.1702119 -2.1897562 -1.9189816 -0.18646532 -1.4179131 -3.3245952
-0.27324408 -1.7553483 -1.0790055 -0.9112569 -1.1655799 -1.4229633 -1.9507937 0.70538247
2.3086421 0.53899604 -1.9282266 1.3440424 -0.75906485 -2.448409 -1.5946288 0.92444146
1.4983611 -0.0026743421 1.2020625 -0.7709358 -1.8545408 0.9354562 0.38540366 0.89594656
0.19548187 -0.8518614 2.0122736 -1.8567961 -2.2822475 -3.3932102 -1.2459596 -1.3790736
-1.9628596 0.32907426 0.5297267 -2.1986601 1.3860608 0.7776975 -0.64591604 -0.9998263

weight f4 [64]
00000000: 778b aa3f 0039 853f ba28 993f 9759 933f
00000010: 722c 9d3f 0843 943f 4703 863f b4b9 a13f
00000020: e8fc 043e 0f6c 913f 59e2 953f b577 ac3f
00000030: e0b0 acbc 6ff0 b23f 1ca2 9d3f bbfb b73f
00000040: 98d2 b93f aedb aa3f f51a 923f eb2b ab3f
00000050: 3cf4 8d3f f580 913f 5f79 493f 7b7f c23f
00000060: 4540 9e3f 99cb a13f 8600 9a3f 1542 ea3d
00000070: 9f2b b63f 9a8f 883f cda8 9a3f 7723 2b3e
00000080: 5b72 903f d3cb 9b3f 9d8c a73f 915c aa3f
00000090: 3839 ac3f 6030 a53f c561 813f 1d27 b63f
000000a0: 684b 953f f7fe 0d3e e9c7 413e 726d 933f
000000b0: 453e a93f 22a3 7d3f 6bd7 b53f 0e0d a9bd
000000c0: 50f1 b83f a71c 943f 985a 913f c92b a03f
000000d0: a624 393e e7ba 8c3f 60c3 a03f b0ef be3f
000000e0: 5128 833f 9b83 853f 0f70 143e 72bf b53d
000000f0: 82fa 9d3f 8219 9d3f ab32 8d3f 3503 ac3f
1.3323811 1.040802 1.1965554 1.1511716 1.2279189 1.1582956 1.046975 1.2634797
0.12987101 1.1361102 1.1709701 1.3474032 -0.021080434 1.3979625 1.2315097 1.4373697
1.4517393 1.3348291 1.1414477 1.3372778 1.109016 1.136748 0.7870082 1.5195154
1.2363364 1.2640258 1.203141 0.114383854 1.4232062 1.0668824 1.2082764 0.16712748
1.1284899 1.2171577 1.3089787 1.3309499 1.3454962 1.2905388 1.0107962 1.4230686
1.1663637 0.13866793 0.18923916 1.1517775 1.3222128 0.99077046 1.4206365 -0.08254443
1.4448643 1.1571244 1.1355772 1.2513362 0.18080387 1.0994538 1.2559624 1.4916897
1.0246679 1.0430788 0.14495872 0.08874406 1.2342074 1.2273409 1.1031088 1.3438479

bias f4 [64]
00000000: 878f fabf 3ae8 10c0 6793 ffbf 2b49 0fc0
00000010: 8d0a efbf 6e47 f3bf 8a01 d2bf 61ba d3bf
00000020: 3811 5ebf 6716 1bc0 1b04 06c0 08a8 e9bf
00000030: 4495 8cbf 27e6 cbbf e3f4 01c0 4dce edbf
00000040: 4093 63c0 bfc9 c6bf 7203 d3bf b8fc 04c0
00000050: 6b34 1bc0 5820 ebbf dfec e6bf 3065 f7bf
00000060: 9905 c3bf cb25 d9bf b53f 15c0 806b 56bf
00000070: 4a27 ecbf c6e5 e5bf 8134 1dc0 2c41 36bf
00000080: 655a f7bf 045c 0bc0 f36e 17c0 57ea 42c0
00000090: fd74 30c0 42ef 0bc0 3de8 0ac0 b4fe 2bc0
000000a0: 14bb 25c0 26c3 4ebf 4455 22c0 df36 43c0
000000b0: 427f cfbf a855 edbf d38b f9bf be87 b7bf
000000c0: 524e d5bf e1ea dfbf de65 e6bf 18c2 04c0
000000d0: d81f 90bf 9f27 08c0 ae7a 24c0 a419 efbf
000000e0: 5210 dabf 2fd5 fdbf b2eb 51bf 7123 50bf
000000f0: ec4c fbbf e909 e2bf f951 dcbf 1481 ebbf
-1.9575051 -2.264174 -1.9966859 -2.2388408 -1.8675095 -1.9006174 -1.640672 -1.6541253
-0.86745024 -2.4232423 -2.0940006 -1.8254404 -1.0983052 -1.5929612 -2.0305717 -1.8578583
-3.5558624 -1.5530318 -1.6485426 -2.0779247 -2.4250743 -1.8369246 -1.8041037 -1.9327755
-1.5236083 -1.6964658 -2.3320134 -0.8375778 -1.844949 -1.7960746 -2.4563296 -0.71193194
-1.9324461 -2.1774912 -2.3661468 -3.045553 -2.7571404 -2.1864781 -2.1704247 -2.6874208
-2.5895433 -0.8076652 -2.5364542 -3.050224 -1.6210711 -1.8541765 -1.9495796 -1.43383
-1.6664526 -1.7493554 -1.7999837 -2.0743465 -1.1259718 -2.1274183 -2.5699878 -1.86797
-1.703623 -1.9830683 -0.8200027 -0.8130408 -1.963285 -1.7659274 -1.7212516 -1.8398767

running_mean f4 [64]
00000000: 0c7e d3c1 f128 8dbf 6d06 b0c1 7be0 a6c1
00000010: 1541 f1c1 5cc5 d4c1 ae83 bbc1 28b8 8dc1
00000020: 9d45 27c1 fa95 0cc1 866a 25c1 e998 65c1
00000030: 8a0d 05c1 2e8e 16c2 6723 0fc2 d765 adc1
00000040: d053 d2c1 fe03 d1c1 2219 e0c1 d517 b7c1
00000050: cd12 90c1 8cb8 abc1 1d88 64c1 6ca8 c2c1
00000060: fa03 cbc1 907f d5c1 61b6 a0c1 22d9 e6c0
00000070: 667f fdc1 98c4 8ec1 b949 7ec1 6f68 cdc0
00000080: 3381 bdc1 1f19 0540 b157 11c1 d58f 4ac1
00000090: 7ee0 1cc1 11d0 74c1 6968 f7c0 84d8 053e
000000a0: 420a 4bc1 f17d 0fc0 1005 1942 ff67 5dc0
000000b0: 4b2d 94c1 39bf 72c1 3a41 a3c1 9860 ebc0
000000c0: 94dd f3c1 46cf 06c2 4ea0 20c1 1c94 02c2
000000d0: 24ad 0cc1 fae0 c4c1 6b73 26c1 9245 73c1
000000e0: bf82 82c1 7291 cac1 a85a 57c0 82b0 4ac0
000000f0: 8d80 39c1 99e8 5bc0 12a6 d9c0 cffe 8bc1
-26.436546 -1.1028119 -22.003138 -20.85961 -30.156778 -26.596367 -23.439297 -17.71492
-10.454495 -8.786615 -10.338507 -14.349832 -8.315805 -37.638847 -35.784573 -21.674726
-26.290924 -26.12695 -28.012272 -22.886637 -18.00918 -21.46511 -14.283231 -24.332237
-25.376942 -26.687286 -20.089052 -7.2140055 -31.687206 -17.845993 -15.892999 -6.4189982
-23.688086 2.0796583 -9.083909 -12.660115 -9.804808 -15.300797 -7.7314954 0.13070875
-12.690004 -2.2420619 38.254944 -3.4594724 -18.522116 -15.171685 -20.406849 -7.355541
-30.483192 -33.702415 -10.039137 -32.644638 -8.792271 -24.609852 -10.403178 -15.204485
-16.31384 -25.321018 -3.3649082 -3.1670232 -11.593884 -3.4360716 -6.8015223 -17.499418

running_var f4 [64]
00000000: 1789 8f43 b867 8343 8892 7543 3869 8643
00000010: c591 9043 0be0 8143 6ec1 9243 9ab7 8a43
00000020: 9a09 8142 0b41 6043 fd34 7d43 e634 8243
00000030: f82e 8342 95f3 b043 7cac 8a43 6010 9443
00000040: 4331 9b43 15d3 a143 dc3e 8a43 e244 8243
00000050: 69f6 7143 a8a4 8743 6ed2 6643 e6ec 9843
00000060: cb97 a643 49e6 ad43 288f 8243 f677 5341
00000070: bbc7 9c43 f949 7843 bb69 8343 1258 9141
00000080: 65e8 8943 0065 8043 207e 7b43 cb90 7743
00000090: eff7 8f43 32fc 5d43 36ac 7b43 57e1 5d43
000000a0: 20ac 7043 03b0 4341 95ae a943 7945 5443
000000b0: 6b30 8543 76ea 8543 01de 8e43 9c74 a042
000000c0: 22e9 9643 4be5 a443 ff1d 8543 76e7 a143
000000d0: 659d c641 9eb3 9443 5b81 8543 e58e 8143
000000e0: 10ac 7a43 989d 6f43 2e48 5740 fd3d 8542
000000f0: d03e 9043 fab0 7843 523e 9943 65f8 8a43
287.071 262.8103 245.57239 268.82202 289.13882 259.75034 293.51117 277.4344
64.51875 224.25407 253.20699 260.41327 65.591736 353.90298 277.34753 296.12793
310.38486 323.64908 276.4911 260.53815 241.96254 271.28638 230.82199 305.85077
333.18588 347.7991 261.1184 13.216787 313.5604 248.28896 262.82602 18.168003
275.81558 256.78906 251.49268 247.5656 287.93698 221.98514 251.6727 221.88023
240.67236 12.230472 339.36392 212.27138 266.37827 267.83173 285.7344 80.22775
301.82135 329.79135 266.23434 323.8083 24.826853 297.40326 267.0106 259.11636
250.67212 239.6156 3.3637805 66.62107 288.49072 248.69131 306.48688 277.94058

weight f4 [512, 64]
00000000: a6b1 153c 0476 b93c 2d23 4a3d aace dfbd
00000010: adaa dfbd c771 94bd 20c6 bcbb 7117 25bc
00000020: af2f d5bd 5370 e1bd 09bb 4d3d 9ae5 70bd
00000030: c09d 69bd 7de4 efbd 9791 0abe fc5f 6ebd
00000040: 5615 b1bd d715 1dbc d1b0 673d 1a6e 653c
00000050: e971 6fbd e723 1dbd 1cdf b0bd 2951 a3bd
00000060: 9ba3 e9bd ece9 8d3d 0950 f63c de2f a7bd
00000070: 2c29 8cbd 7655 08be 83ae ebbd 87ee a53d
00000080: b935 0abe f1f0 cabd 31e5 8ebd cc85 243d
00000090: a4f5 393d bf68 993c 6c8b 623d 7565 2dbd
000000a0: c383 e03c 6fbc 863d f164 693d e1cc bcbc
000000b0: f528 03be d110 aa3c f135 b23d 544f c1bc
000000c0: 0bf5 ca3b 92e7 dbbd 264b 31bd 0797 333d
000000d0: 1cc7 7b3d a2a0 febd ebf2 a43c 8334 c4bc
000000e0: ec40 c6bd 4177 dbbd 891f eebd 7997 813d
000000f0: d671 c4bc 5b3a cdbd 8491 323d 1049 b43d
00000100: 107a 54bd 4e3c f2bd d473 adbd 22f4 cb3d
00000110: 80bd ba3c 3e45 e9bd 4c6f 9fbd 7adb f7bd
00000120: ae20 fabd 000d b13b 6251 c3bd d015 5a3d
00000130: cc7f c5bd 40b4 5ebb 0eba f43d f8e0 283d
00000140: 8010 563d 3039 723d b8ee d4bd 38b6 a93c
00000150: 7ea0 eb3d 6061 d73d d014 153c 2828 04bd
00000160: e42f 8bbd 1808 453d 44d5 ad3d 882f ddbd
00000170: c026 55bb d8f9 b6bd 7cce 473d 803e 67bb
00000180: 8039 ed3a 609b a23d 2019 11bc c02e 60bc
00000190: 0ad0 bcbd fc22 aabd 38a3 fa3d ac18 abbd
000001a0: 707c 47bd 542c 47bd a4c8 34bd 7c4d 27bd
000001b0: 84a4 4e3d dc1e 643d c05f 21bc 204b acbb
000001c0: f8ca bfbd ca30 823d d487 5e3d 648d f6bd
000001d0: 10c0 f33d f078 28bc e222 f9bd 24ad 40bd
000001e0: f0f2 9ebd 6ad0 c93d 8e77 f73d 7a06 ef3d
000001f0: c0b8 a83c b8d4 e63c a637 b5bd 54a8 0a3d
00000200: c6e2 a8bd ad36 04be a1c5 223b a9d6 fdbc
00000210: dcbf eebd af0e c3bd 6c98 18be d729 40bd
00000220: 732b 0dbe c0f3 08be 1946 1ebe e9df 47bd
00000230: 7c40 9fbd 9249 23bd 5a32 81bd fc17 bb3c
00000240: ee31 18be 835f a83d a4e5 ad3d 22b9 f1bd
00000250: eb4b e4bd dfb8 07be e286 7abe ee4f dfbd
00000260: 3143 a4bd d382 08be 4e05 e2bd 2739 933d
00000270: 4d9a f43c a283 b8bd df9a 153d 6646 23be
00000280: c6be 5c3c a1ec 98bd b7cb dfbd 4f78 f1bd
00000290: 904e 48bc f2bc 83bd d45a ef3c 5d85 923c
000002a0: 6099 8c3d 0479 1b3d 69a5 52be b219 1ebc
000002b0: e875 03be a845 9ebd 04f5 dd3c 6c9e cd3c
000002c0: a7f8 5ebe 3e94 193d c2e6 cfbd f2d3 ddbd
000002d0: cce5 23be ab8e abbd a827 34bd 1f2c 5abd
000002e0: 4e00 5fbd d57a 04be c491 8d3d 1d89 47bd
000002f0: ecf2 c4bd b184 02be b632 6abc 89dd 25be
00000300: 76dc b4bd 13bc 3fbd 9d42 b93c 4e74 1d3d
00000310: 6dc3 eb39 76a1 4e3c ffd1 8cbd a379 a6bd
00000320: 7112 a5bc 7d61 19be 73d2 19be 7fc3 17bd
00000330: 3b43 2dbe 192c 23be d657 b3bd 3a5d 1fbe
00000340: 483b 05be 3e36 99bd a216 813c 2eca 0cbe
00000350: e3f8 7cbc d6e7 f6bd 8816 44be 9229 26be
00000360: 261d a13c 72e5 eabd 3cd9 d4bd 6bac edbd
00000370: 1496 41be 8d74 28bd f78b 5d3c 1c65 9abd
00000380: e334 38be ed8d 50bd 6f69 4cbe decb 663b
00000390: b344 ebbd e666 3ebe b84a 36bd 608f 18bd
000003a0: 15a3 1f3d f00a 0fbe e6c0 4abd a3ef 12be
000003b0: 3214 6abd 933b 3ebe 923b 1dbe 1b73 a63c
000003c0: c507 46be 910f f3bd 9297 e23b 36a3 e93a
000003d0: 0935 efbd f388 37be e643 f3bd b4d2 b23c
000003e0: 29c7 9ebd c31f 4cbe 9ee1 e6bd a391 4dbe
000003f0: a969 9ebd e7ba bbbd 92de 4abe cd13 c1bd
0.009136593 0.022639282 0.049349952 -0.1092809 -0.10921226 -0.07248264 -0.005760923 -0.01007639
-0.104094855 -0.11007752 0.0502272 -0.058812715 -0.057035208 -0.117135026 -0.135321 -0.058197007
-0.08646648 -0.009587727 0.05656511 0.014003301 -0.058458243 -0.038364317 -0.08636305 -0.079744644
-0.114081584 0.06929383 0.03006746 -0.08163427 -0.068437904 -0.13313851 -0.11507895 0.08102136
-0.13497056 -0.09909237 -0.069773085 0.04016666 0.045400277 0.018726705 0.055308744 -0.042333085
0.027406579 0.065789096 0.05698103 -0.023046913 -0.12808593 0.020759972 0.08701695 -0.023597397
0.006193762 -0.10737528 -0.043284558 0.043845203 0.061469182 -0.12432982 0.020135364 -0.02395082
-0.096803516 -0.10716105 -0.116271086 0.06327719 -0.023980062 -0.10020896 0.043595806 0.08802998
-0.05187422 -0.118279085 -0.08469358 0.09958674 0.022795439 -0.1139016 -0.077849 -0.12102409
-0.122132644 0.005403161 -0.09537007 0.05324346 -0.09643516 -0.003398195 0.119495496 0.041230172
0.05226183 0.05913657 -0.103970945 0.020716771 0.11505221 0.1051662 0.0090992 -0.03226486
-0.06796244 0.048103422 0.08487943 -0.108000815 -0.0032524318 -0.08934373 0.048780903 -0.0035285056
0.0018098801 0.07939792 -0.008856088 -0.013683021 -0.09219368 -0.08307454 0.12238163 -0.08354315
-0.048702657 -0.04862626 -0.04413666 -0.04084538 0.050449863 0.055693492 -0.009849489 -0.005257979
-0.09364885 0.06356962 0.054328755 -0.12038687 0.119018674 -0.01028274 -0.121648565 -0.04704012
-0.077611804 0.09854205 0.1208335 0.11671157 0.020595908 0.028177604 -0.08848505 0.033851936
-0.082463786 -0.12911482 0.0024837034 -0.030986147 -0.11657688 -0.09524285 -0.14901894 -0.0469149
-0.13786106 -0.13374233 -0.15456428 -0.04879752 -0.07775971 -0.039865084 -0.06308432 0.022838585
-0.14862797 0.082213424 0.08491066 -0.118028894 -0.11147293 -0.13254116 -0.24465516 -0.10903917
-0.08020628 -0.13331155 -0.11036168 0.07188635 0.029858733 -0.09009482 0.03652465 -0.15944824
0.013473218 -0.074670084 -0.109275274 -0.11790525 -0.012225762 -0.06432523 0.029218115 0.017885858
0.068651915 0.037957206 -0.20570911 -0.009649681 -0.12837946 -0.077281296 0.027094372 0.025099955
-0.21774541 0.03749489 -0.101514354 -0.10831441 -0.1600563 -0.08376821 -0.04398313 -0.053264733
-0.05444365 -0.12937482 0.06912568 -0.048714746 -0.09616646 -0.1274593 -0.014294317 -0.1619779
-0.08831112 -0.04681022 0.022614772 0.038440995 0.00044968296 0.0126117375 -0.06875991 -0.08128669
-0.020150395 -0.14978595 -0.15021686 -0.037051674 -0.16920178 -0.1593479 -0.08756988 -0.15562907
-0.13010895 -0.07481049 0.015757862 -0.13749 -0.015440199 -0.12055938 -0.1914922 -0.16226795
0.01966722 -0.114695445 -0.10392997 -0.11605152 -0.18904907 -0.041126776 0.01352214 -0.07538816
-0.17988925 -0.0509166 -0.19962095 0.003521673 -0.11487713 -0.1859394 -0.04450485 -0.037246108
0.038973887 -0.13969016 -0.04950037 -0.14349227 -0.057148166 -0.18577413 -0.15354756 0.020318558
-0.19338901 -0.118682034 0.0069150412 0.001782513 -0.116800375 -0.17923336 -0.11878185 0.021828987
-0.077528305 -0.19933991 -0.11273502 -0.20075087 -0.07734997 -0.09166508 -0.19811466 -0.09427605
