model_agePrediction.pth (torch, 414082 bytes, 24 tensors)

weight f4 [32, 1, 3, 3]
00000000: ee05 d7bd aa2d 9dbd 7151 e2bd b5e7 cb3e
00000010: 9bad ecbd 6a5d 9b3f 672d c7be 24c5 64bf
00000020: b2ef 31be 4b9b 2b3e 2556 41bd 5e4c 103f
00000030: cb79 6dbe b9ae 2e3d 100c 033f 5440 b4be
00000040: 7ccb 33bf b79d ef3e dce9 3ebf f93d 4fbe
00000050: 158c d8be 42d3 39bb 3ea8 273f 4cff 863e
00000060: ff3d fbbd b4dd 5d3f 9cab 24bd 9400 acbd
00000070: b6a1 063f 5739 4ebf e4a3 1ebd 3bd3 813e
00000080: c267 3abf a9ce 5f3e 3f4e de3e 0e17 40bf
00000090: 4eef a23d ff37 b3be c588 8a3e cd14 fa3e
000000a0: 235a 9a3e 6ba4 e3bd 7263 253e 1ad3 633f
000000b0: 7151 1c3e 2c0f 97be 86e4 87be 344b edbe
000000c0: 4814 903e c107 803e 2f4a 0ebd 5a3f 9a3f
000000d0: 8d66 573f 5c8f bb3e 074c 433e 9af5 fdbe
000000e0: 5eef 8ebe 5806 4d3f 5ecd 25bd b0de 83bf
000000f0: 9478 fb3e 59b2 4d3f fd99 c9be 47e9 0b3e
00000100: 1371 413e 5f65 363f 6077 a43e 7793 5b3e
00000110: a8c0 9dbe 49dc 0c3f c52a 663f e44d 903e
00000120: 3c29 2ebf 59cb 58bf 3241 413f 3957 193e
00000130: 691b 97bb 5e4d 27bf b6a7 013e 5eca 043f
00000140: 5262 363d af5e 45bf 0650 32bf a284 e5be
00000150: 1382 7b3c 368d cbbd 96cf b2be 133b 693f
00000160: 0b88 573f 2e14 953e a0af 63bf 6b86 10bf
00000170: 3859 3bbf d0d0 353f 1b1c e4bd 1e66 52be
00000180: 9113 893f 560e 1d3f 11b3 743e 018c c23d
00000190: 5376 233e 229a 48bf b0a5 03bf c9c8 30bf
000001a0: 9476 e03d 7630 b7bd 839c ee3e 016c a73f
000001b0: 4ae4 ca3e 35f7 853e ac39 ad3d a460 2e3e
000001c0: a9d0 e43e 27f9 25be c694 133e d3fa 153e
000001d0: 0d5c 05bf 90ac 11bf 517f f5bd 456b 173f
000001e0: c672 1abf f490 563d f3f1 3b3f d57d 2fbf
000001f0: fb3e 6e3e e401 863d 48ba 163f 4761 353f
00000200: 6bef c53e 99ac c73e 19bb 803d 34fa 8fbd
00000210: 77db 82be 4bae 31bf 9a75 28bf f14e a7be
00000220: 235b fb3e c30b d73e f755 893e f940 46bd
00000230: 0b78 923e 58dd 163f 9318 303e 117d b33e
00000240: 1e8d 5b3f a610 a3bd beb8 d0be aba6 303f
00000250: 7da8 bcbe a2be 9a3a dc6a 1abf 5e3f 1cbf
00000260: ca49 543f 4d53 e23e abe8 e33d 91c9 e33d
00000270: bc57 03bf 5492 1dbf 56b5 8ebf e18a d13e
00000280: 80ff 69bc e1b6 dc3e 66a2 0fbf 5845 95bd
00000290: 97e5 513e 2a72 df3d c00a b2bd c47d 0d3f
000002a0: 98f1 cd3e d6d1 413f 7488 6c3e 0111 afbd
000002b0: 1346 be3e 2d7b d83e 05a6 62be 4818 a23e
000002c0: 26da 7abd 4da4 30be bb80 203f f0c0 b9bc
000002d0: 14fd 5c3d aa59 d63e ff4e 5b3f 9c9a 3fbf
000002e0: 4f15 8dbe 43dd fb3e 826c 6ebf a543 1fbe
000002f0: a36f ed3e 597e fcbd 797f a53d e56c d4be
00000300: 87f3 313f 5796 a33f 25aa 31bf 8481 e6be
00000310: f73a b83e eb36 33bf 1fb6 7b3f 83a6 2f3f
00000320: df96 d6bd e2c4 233e 8357 c7bd 9164 2cbf
00000330: 142a 00bf a454 bebe ddce 90be 4b96 80be
00000340: a62f 703e 4fbe 4d3f e411 2fbf ffeb 143e
00000350: f683 803f dbe0 1fbf 18bb 76be 6edf b0be
00000360: 4830 033f 5cdd 23be 461a bb3e 53c4 6d3e
00000370: 40f6 91bf c8fd 6fbf 0618 82be be7d 4fbf
00000380: a26d 98bc a518 19bf 60ae a1bf 3d95 42be
00000390: 801b 4e3f 88bd 29be a107 4f3f 1b29 363d
000003a0: cd2a 77be 95d2 f93e 0c0f 313d acd7 7cbe
000003b0: d560 083f b773 bc3e 0c2b 5dbf 510a 0a3f
000003c0: 81e7 433f d5f4 0dbd 932b f5be 9cda 443c
000003d0: 74a8 2fbe a577 943e 51ee 13bf 49a5 41bf
000003e0: 35cb 65bc 7c3f 183f abed f23e 7de9 96be
000003f0: 7250 8d3e 4ec3 c4be b3f7 613d 4618 f23e
-0.10499178 -0.07674725 -0.1105069 0.39825216 -0.1155655 1.2137883 -0.38901827 -0.8936331
-0.17376593 0.16758458 -0.047201294 0.5636653 -0.23190992 0.042647097 0.5119028 -0.35205328
-0.7023237 0.46800014 -0.7457559 -0.20238484 -0.42294374 -0.002835468 0.6549109 0.2636665
-0.12267684 0.8666642 -0.040202722 -0.08398548 0.525905 -0.80556244 -0.038730517 0.2535647
-0.7281457 0.21856178 0.43419072 -0.7503518 0.079558 -0.3500366 0.27057472 0.48843995
0.30146894 -0.111153446 0.16151217 0.8899399 0.15265442 -0.29503763 -0.26541537 -0.46346438
0.28140473 0.25005916 -0.034738716 1.2050583 0.84140855 0.36632812 0.19071971 -0.49601442
-0.27916998 0.80087805 -0.040479057 -1.0302334 0.4911543 0.8035026 -0.39375296 0.13663207
0.1889079 0.7124843 0.32122326 0.21442972 -0.30811048 0.5502363 0.8990901 0.28184426
-0.6803167 -0.84685284 0.75490105 0.14974679 -0.004611422 -0.6535243 0.12661633 0.5187129
0.04452736 -0.770976 -0.69653356 -0.44827753 0.015350836 -0.09939043 -0.34924 0.91105765
0.8419196 0.29116958 -0.8893986 -0.56455106 -0.7318301 0.7102175 -0.11138173 -0.20546767
1.0709096 0.6135 0.23896433 0.0949936 0.15963106 -0.7836019 -0.51424694 -0.69056374
0.10960117 -0.0894479 0.46603784 1.3079835 0.39627296 0.26165166 0.08458266 0.17029053
0.44690445 -0.16208325 0.14412221 0.14646463 -0.52093583 -0.56903934 -0.11987174 0.59148055
-0.6033138 0.05238433 0.7341606 -0.6855138 0.23266213 0.06543329 0.5887799 0.7085156
0.38659224 0.3899887 0.06285686 -0.07030144 -0.25558063 -0.69406575 -0.65804446 -0.32677415
0.4909297 0.4200116 0.26823398 -0.048401807 0.2860721 0.58931494 0.17196874 0.35056356
0.857622 -0.0796216 -0.40765947 0.69004315 -0.36847296 0.0011806081 -0.60319304 -0.6103419
0.82925093 0.44204178 0.11128362 0.1112243 -0.5130575 -0.61551404 -1.1149089 0.4092627
-0.014282107 0.43108276 -0.56107175 -0.07288617 0.20497738 0.10910447 -0.08693457 0.5527003
0.40223384 0.7571081 0.23098928 -0.08548165 0.37162837 0.42281476 -0.22133644 0.3165915
-0.0612432 -0.17250176 0.6269643 -0.022675008 0.05395229 0.41865283 0.85667413 -0.7484529
-0.2755532 0.49192247 -0.9313432 -0.15553148 0.46374235 -0.123287864 0.08080954 -0.4148933
0.6951222 1.2780255 -0.69400245 -0.45020688 0.35982487 -0.70005673 0.9832477 0.6861345
-0.10477995 0.15993074 -0.097334884 -0.6734095 -0.50064206 -0.3717395 -0.28282824 -0.25114664
0.23455676 0.8036851 -0.68386674 0.1454315 1.0040271 -0.6245248 -0.24094808 -0.34545463
0.51245546 -0.1600241 0.36543483 0.23219423 -1.1403275 -0.93746614 -0.25408953 -0.8105124
-0.018606964 -0.5980323 -1.263134 -0.19002242 0.8051071 -0.16576207 0.80871016 0.044472795
-0.24137421 0.48793474 0.04322724 -0.24691647 0.53272754 0.36807033 -0.8639381 0.5392199
0.7652512 -0.03465732 -0.47884807 0.012015011 -0.17154104 0.28997532 -0.57785517 -0.7564283
-0.014025499 0.5947187 0.4744695 -0.29475012 0.27600437 -0.38430256 0.055167865 0.47284144

weight f4 [32]
00000000: 2056 e83f a2eb b33e 491d f03d 2147 1b3f
00000010: 7309 233f dfa6 203f c5ae 0540 ceef ef3e
00000020: b5c7 8b3f 673f a83f 9104 393f 2511 0740
00000030: 8565 0d3f 3f3c 413f 5526 aa3f dc2c 303f
00000040: d6ba c53f 5d49 673f ead7 a73e e04b 903e
00000050: e333 e73f d634 da3f 6dad 963f 8525 9e3f
00000060: f239 953f 14b8 913f 2654 6d3f 2532 ec3e
00000070: 1855 843f e014 343f b373 a13f c9ce 933f
1.8151283 0.3514071 0.11724336 0.6065541 0.63686293 0.62754625 2.088792 0.46862644
1.0920321 1.3144349 0.7227259 2.1104214 0.5523303 0.75482553 1.3292948 0.6881845
1.5447643 0.9034632 0.32781917 0.28182888 1.806271 1.7047374 1.1771675 1.23552
1.1658309 1.1384301 0.92706525 0.46132007 1.0338469 0.7034435 1.2613434 1.1547481

bias f4 [32]
00000000: d2c6 e83e b9f6 973d 643f 413e daec 30bf
00000010: 3e73 7abf 5e7f 18bf 571c 9a3e 8925 16bf
00000020: d70b 44bf 8538 233f 67db 823e 1e7c 6b3f
00000030: 48d2 5abf 61dc 54bf d75f 08be 095f 14bf
00000040: 96f5 2b3f de6f 31bf 05e9 5cbf 7f90 3dbf
00000050: 8592 183f e7c8 973f 0b78 6d3e 405e bb3e
00000060: 3dd9 6fbf 457a fcbe 4a55 043d bdc1 21bf
00000070: 7e56 16bd 46a1 1fbf e505 1c3e dd07 433f
0.45464188 0.074201055 0.18871838 -0.69111407 -0.97832096 -0.59569347 0.30099747 -0.58651024
-0.76580566 0.63758117 0.25558016 0.9198626 -0.85477114 -0.8314877 -0.1331781 -0.5795751
0.6717161 -0.6931132 -0.8629306 -0.7404861 0.5959857 1.1858186 0.23190324 0.36595345
-0.93690854 -0.49312034 0.0323079 -0.63186246 -0.03670358 -0.6235546 0.15236624 0.76183873

running_mean f4 [32]
00000000: 2e66 363c 1408 e0bb e451 e7bc 7269 be3c
00000010: 00a6 96bd 5ca0 a0bd 7f9e b7bb 2470 debd
00000020: aa31 a93c c14e 7abb 8fa7 99bc 98f4 aabb
00000030: c3c3 13bd 7a85 183c 8447 ddbb d481 a1bd
00000040: b90c 643b ca03 033d 8bff 80bd 8a42 3ebd
00000050: ebfc 493c b539 9bbc 4b61 6e3c d48c 113c
00000060: dfb1 d83d 6b1f aa3b fc0a 37bc f16b f93c
00000070: fa41 8abb 7716 bbbc c6c5 cc3c 07bd 5bbc
0.01113276 -0.0068369005 -0.02823729 0.02324364 -0.07355881 -0.07843086 -0.005603611 -0.10861233
0.020653564 -0.0038193914 -0.018756656 -0.005217146 -0.036075365 0.009309167 -0.00675291 -0.07886091
0.0034797622 0.031986035 -0.06298741 -0.046450175 0.012328367 -0.018948415 0.014549564 0.008883674
0.10580801 0.0051917336 -0.0111720525 0.030446978 -0.004219291 -0.02283786 0.02499665 -0.013411767

running_var f4 [32]
00000000: 1f9c 9e3e ee2e 003f 5af5 d63e e169 813f
00000010: 964c 2e40 d4ab 4740 30b5 4f3f 9a38 d140
00000020: a82c 103f 9f92 713f 4d27 893f 290a eb3e
00000030: 598c 6f3f fce2 3f3f 8242 5f3f 4563 6140
00000040: 742b 6d3e a1c1 143f c341 0040 2072 923f
00000050: f3e2 7c3f ec17 f13e 7d99 1e3f e384 573f
00000060: 503e 9d40 53b7 123f f6b8 b73e 236a 223f
00000070: 9d71 313f 6975 833f 1cb9 5c3f 758b 483f
0.30978486 0.5007161 0.41984063 1.0110437 2.7234244 3.1198626 0.81135845 6.5381594
0.5631814 0.9436435 1.0715119 0.4590619 0.9357353 0.74955726 0.8721086 3.521684
0.23161107 0.58107954 2.0040138 1.1441078 0.987838 0.47088563 0.61952955 0.84187144
4.9138565 0.5731098 0.35883301 0.634432 0.69313985 1.0270206 0.86219954 0.78337795

weight f4 [32, 32, 3, 3]
00000000: 33ec 7a3e d8f3 cfbd 4e6d 87bf b3df 00bf
00000010: a288 43bf 1d31 33bf 6683 a7bf 4886 55bf
00000020: 3e3e 3abf 1df3 853e 54b0 a7bc 5633 21bf
00000030: a4e9 a6be 33ae 62be 72bc efbe 5f14 e9be
00000040: 85cf 2abf e709 f8be e0fa 2039 b317 d03c
00000050: 6a2b 2fbe bca5 e83d 698a 39bd df32 873c
00000060: f165 97be 724e 92be 6cbd d8be 4d25 59bd
00000070: 64a8 bcbb 5c5b 873e 2eb9 4bbd 2e86 f9bb
00000080: 6f2a 293e 0874 e73c e5e7 b13c a202 423e
00000090: 66a4 5dbe 894a bbbe 6c3a 96be 7dc9 96be
000000a0: c9ff c1be 42cc c4be 3889 4abf 554e 1ebf
000000b0: 4e0d 1fbf 62f1 a3bd 927c 64be b7c0 05be
000000c0: a6d4 c8be bcd3 a5be 0d04 3dbe d4e6 bfbe
000000d0: 7f52 b5be 5dc9 8fbe 29f3 e43e 8f71 5cbe
000000e0: 1242 c93e f79f 2b3e 186e 56be d394 8fbe
000000f0: 9092 aabf 50ed 87bf 477a 5cbf db8b 95be
00000100: fefe 5cbe 6dbf 6cbe b2a0 debd 7114 843d
00000110: 5e61 613d 65d1 97bd adf9 183e 7d7c a33e
00000120: 4607 593f 80bc 3e3f 3acf be3e 5294 133f
00000130: f9c6 ea3e b19e babc efd8 0ebf 572a bebe
00000140: 48a1 45bf 8f3e 413f c151 6a3e d47e 0fbd
00000150: 3814 203f a624 853e c7c7 2bbe cb90 41bf
00000160: fa11 0dbf ee06 6cbf b1e7 0d3f 2fde 063e
00000170: ed01 38bb 4b44 183f 3d9f b43e 9470 013e
00000180: 587a 3fbf 7d6d 97be adcd 51bf 02b9 193f
00000190: b2bc cc3e f1c3 323e 194c ba3e 7751 63be
000001a0: 1f42 db3d 0a3b 38bf 981d 74bf 797a 99bf
000001b0: 97ae 003d 1444 0e3d 37b7 47bd 4670 6dbe
000001c0: 4bc0 d4bd 62e9 90be 423f 1ebe bae2 13be
000001d0: 7fce a3be 81de 993d 897b d33d 1c4e 1ebf
000001e0: 7811 b8be bcae 1abe 3d7a b0be f14f c1be
000001f0: a55c 45be da80 f2bc 29a2 453f 72c1 603e
00000200: cf40 6ebe 3e20 b6be f66f 1dbf 2be1 8ebf
00000210: a5c8 5abf de6c a9bf e902 cabf 8002 2cbe
00000220: 620d 7abd 3288 31be 2687 e0bd 89e2 c63d
00000230: 8588 9c3c c931 73be d66e 45bc 8bf4 183e
00000240: 8976 d93e a50e d93e eb15 c93e c439 50be
00000250: bea6 e7be 510c c33c 47e0 35bf 3734 40bf
00000260: 7b20 80bf 41f9 f03e 262b c53d f1ec 4d3f
00000270: a30b c6be b266 17bf 35a0 23bf 8b93 d7be
00000280: 562d 19bf 2b2e 32bf ca56 8a3e d8ed 363d
00000290: 60bf d03b 6804 883e 6a04 313e d608 103e
000002a0: 375e febd 8448 7a3d 819f 563d 6989 29be
000002b0: 6ffb 27be caea 86be 6236 8abe 3af6 96be
000002c0: 6e71 22be 9f42 93be a956 8ebe 78a9 2fbe
000002d0: 5501 373f 164b 5b3f 295f 1abf dabb 243e
000002e0: ba21 61be ece8 8ebf a5e5 30bf b59b afbf
000002f0: 4cbc 58bf 55c4 eabd 800f 9a3e 565f 703f
00000300: b790 fdbc 518a 2ebe 5b50 753e 5ef8 91bf
00000310: 2f7b 80bf 49a0 6fbf 9625 803f 0f3c 2a3f
00000320: 4718 093f 6fb2 1c3d 3d93 f3bd e474 0ebf
00000330: 7e9a 81be 3918 93be fe66 41bf 7c6e e93e
00000340: d4e6 203f fa55 58bf 8b95 0dbe 37c5 6fbd
00000350: d413 9fbf 2281 d2be 4876 0fbf 9190 0bbf
00000360: 3168 adbd 91b3 43be 900b 613e 7cc1 bfbe
00000370: 3a28 abbe 20b7 49be d4d6 33bf bf1d edbe
00000380: e1a9 cfbe 72ea 4f3f 2c2a 093f d90c 963e
00000390: 948f 2d3f 0628 943e e6e3 3dbd 194e 81bf
000003a0: f86c c0bf e789 efbf 4e83 083f e1e7 6a3d
000003b0: 5023 2a3e eb14 adbe 5b47 8ebe abed 4abf
000003c0: cafc c6bf 4c36 66bf d905 4dbf ac28 e93d
000003d0: dd64 f93d f636 0f3c 16f4 8a3d f2d3 973d
000003e0: 14ea 833e dff4 253e 9ce3 6b3e 7cbe cb3e
000003f0: 8712 8d3c 737e 05bf 1e66 f0bd 5bcb d7be
0.24504165 -0.101539314 -1.0580232 -0.5034134 -0.7638036 -0.69996816 -1.3086975 -0.8340802
-0.72751224 0.26162043 -0.020469822 -0.6296896 -0.3260013 -0.22136764 -0.4682346 -0.45523354
-0.667229 -0.48445055 0.00015352247 0.025401926 -0.17106405 0.11359736 -0.045298014 0.01650375
-0.29569963 -0.28575474 -0.42332017 -0.05301409 -0.0057573784 0.2643689 -0.049737148 -0.0076148724
0.16520093 0.02825357 0.021717021 0.18946317 -0.21644744 -0.36580303 -0.29341447 -0.29450598
-0.3789046 -0.38437086 -0.7911563 -0.61838275 -0.62129676 -0.080050245 -0.22313145 -0.13061796
-0.39224738 -0.32388103 -0.18458577 -0.37480795 -0.35414502 -0.28083315 0.44716766 -0.21527694
0.3930822 0.1676024 -0.20940435 -0.2804323 -1.3325977 -1.0619297 -0.8612408 -0.29208264
-0.21581647 -0.23119898 -0.10870494 0.064492114 0.055024497 -0.07412986 0.14938994 0.31930915
0.84776723 0.7450638 0.37267476 0.57648194 0.4585493 -0.022780748 -0.55799764 -0.37141678
-0.7719922 0.7548608 0.22882749 -0.035033062 0.6253085 0.26004523 -0.16775428 -0.7561156
-0.55105555 -0.92198074 0.5543166 0.13170694 -0.002807732 0.59479207 0.3527774 0.12640601
-0.74796057 -0.2957572 -0.8195446 0.60047925 0.39987713 0.17457558 0.36386183 -0.22199045
0.10705971 -0.71965086 -0.95357656 -1.1990501 0.0314165 0.034732893 -0.04875871 -0.2318736
-0.103882395 -0.28303057 -0.15453818 -0.14441958 -0.31993482 0.075131424 0.10326297 -0.61837935
-0.35950828 -0.15105718 -0.3446826 -0.37756303 -0.19273622 -0.029602457 0.7720056 0.21948794
-0.2326691 -0.35571474 -0.61498964 -1.1162466 -0.8546241 -1.3236349 -1.5782138 -0.16797829
-0.06104792 -0.1733711 -0.109632775 0.09711177 0.019108066 -0.2374946 -0.012050351 0.14937036
0.42473248 0.42393985 0.39274535 -0.20334536 -0.45244402 0.023809584 -0.71045345 -0.75079674
-1.0009912 0.47065166 0.096273705 0.8043967 -0.38680753 -0.59141076 -0.6391633 -0.42104754
-0.598348 -0.69601697 0.2701934 0.04466042 0.00637047 0.26565862 0.1728684 0.1406587
-0.12420314 0.061104313 0.05239821 -0.16556324 -0.16404508 -0.26351005 -0.26994616 -0.2948473
-0.15863582 -0.28761765 -0.2780049 -0.17154491 0.7148641 0.8566145 -0.6030145 0.16087285
-0.21985522 -1.1164832 -0.6910041 -1.3719393 -0.8466232 -0.114632286 0.3008995 0.9389547
-0.030952794 -0.17044951 0.23956434 -1.1403921 -1.0037593 -0.9360395 1.001147 0.6649789
0.5355267 0.038256105 -0.11893318 -0.5564711 -0.2531318 -0.28729418 -0.7554778 0.45592105
0.62852216 -0.8450619 -0.13826577 -0.058537688 -1.2427926 -0.41114146 -0.5603986 -0.54517466
-0.084671386 -0.19111468 0.21977067 -0.37452304 -0.33429128 -0.19698763 -0.70249677 -0.46311757
-0.40559295 0.8121711 0.53579974 0.29306677 0.6779721 0.28936785 -0.04635992 -1.0101959
-1.5033255 -1.871396 0.53325355 0.057350043 0.16615033 -0.33805022 -0.27788815 -0.792689
-1.5545895 -0.899266 -0.8008705 0.11384711 0.12177441 0.008741131 0.06784837 0.07413472
0.25764525 0.16206692 0.23036045 0.39793766 0.017220749 -0.5214607 -0.11738227 -0.42147335

weight f4 [32]
00000000: 0470 7a3f b23e 773f d30f 833f f27c 813f
00000010: bd7f 8c3f d326 8c3f 9bbf 853f 9716 c03f
00000020: 7dbf ad3f e064 873f 53bf 883f 8cf1 ad3f
00000030: 957d b73f 0990 a33f 6636 753f 31c8 b43f
00000040: e38a 803f cfe5 223f f23d b63f 71fe 623f
00000050: 9f52 bf3f b88a 983f 9b34 1b3f 11a7 783f
00000060: 2658 be3f 7137 803f 1f7a 5e3f 6793 763f
00000070: c254 883f b595 a33f b8d8 a73f 18c9 343f
0.9782717 0.9658004 1.0239204 1.0116255 1.0976483 1.0949348 1.0449098 1.5006894
1.3574063 1.057766 1.0683388 1.3589339 1.43352 1.2778331 0.9578613 1.4123594
1.0042385 0.6363191 1.4237654 0.88669497 1.4947089 1.1917334 0.60627145 0.97129923
1.4870651 1.0016919 0.8690509 0.9631867 1.0650866 1.2780062 1.3113012 0.70619345

bias f4 [32]
00000000: ebf9 c1be 940f 2abf f52b 48bf 73c5 0f3e
00000010: 0f8c 55bf 5fca 66bf fd3e 02bf c417 6abf
00000020: 37c7 81be 9cb0 40bf 38c8 7bbf a2a0 22bf
00000030: 9e01 2dbf 7ca7 11bf 1f3a 0abf 5370 52be
00000040: 2e3c 1bbe e9c2 02be 8995 74bf adae 72bf
00000050: 630b c6be b0c3 6bbf 2cd2 bbbe ce7f 97bf
00000060: fd99 49bf f166 04bf b37a 39be cacc b3be
00000070: 95b1 0dbf 2ec0 fdbe 382f 79bf 8219 e3be
-0.37885985 -0.6643002 -0.78192073 0.14040165 -0.8341684 -0.90152544 -0.5087736 -0.91442513
-0.253473 -0.75269485 -0.98352385 -0.63526356 -0.6758059 -0.56896186 -0.53994936 -0.20550661
-0.15159675 -0.12769665 -0.9554067 -0.94797784 -0.38680562 -0.9209547 -0.36683786 -1.1835878
-0.7875059 -0.51719576 -0.18113212 -0.3511718 -0.55349094 -0.49560684 -0.97337675 -0.44355398

running_mean f4 [32]
00000000: 24da c6c1 d670 1c41 f4f4 d2c1 31d8 cdc1
00000010: 440b a7c1 05d4 83c1 1025 c3c1 aa24 99c1
00000020: cb54 0ec1 b9bd 8bc1 f766 bac0 5986 81c1
00000030: 7ec9 45c1 2c1a 46c1 8e1c 99c1 a7c5 46c1
00000040: 7e10 20c1 5635 8dc1 8310 7ac1 5c7d 58c0
00000050: 12f2 33c1 abc9 adc1 3c0a b5c1 1aa1 39c1
00000060: e88f 69c1 8029 efc0 0473 4ec1 1e65 7ac1
00000070: 299d 83c1 2ba9 55c1 ca7c 07c1 cbdc b1c1
-24.856514 9.777548 -26.369606 -25.730562 -20.8805 -16.478525 -24.393097 -19.142902
-8.895701 -17.467638 -5.825069 -16.1906 -12.361692 -12.38139 -19.138943 -12.423255
-10.004026 -17.651043 -15.629031 -3.3826513 -11.246599 -21.72347 -22.629997 -11.601831
-14.597633 -7.473816 -12.90308 -15.649687 -16.451738 -13.353801 -8.467966 -22.23281

running_var f4 [32]
00000000: c2d1 8143 f17d 1c43 ca59 5043 7925 8f43
00000010: 3b11 9a43 1106 3143 acb6 8d43 35a0 7c43
00000020: 49ad 6b43 0270 3a43 9515 7043 35da 5343
00000030: 1e7c 6743 2a9d 6343 366c 2e43 4b18 4543
00000040: bed7 d642 caea 1343 ffc5 1c43 6ec9 0843
00000050: 83ac 5643 3840 b243 dc76 9e43 4d43 5943
00000060: 8869 2a43 0230 4743 d9c0 3143 75ee 6643
00000070: 286b 4b43 cf3c 7243 34ec 4a43 6a29 cd43
259.63873 156.49196 208.35074 286.29276 308.1346 177.0237 283.42712 252.62581
235.6769 186.43753 240.0843 211.85237 231.48483 227.61392 174.4227 197.0949
107.42137 147.91714 156.77342 136.78683 214.67387 356.5017 316.9286 217.2629
170.41223 199.18753 177.75331 230.93147 203.41858 242.23753 202.92267 410.32355

weight f4 [64, 32, 3, 3]
00000000: fd10 45bf 1443 60bf 10c5 b5bf 3b2f 7bbe
00000010: b3dd c2be a52d 85bf 75bb 193e a306 b03e
00000020: abf3 c13d 8da0 553e c240 c1bd 4bdf b9be
00000030: dd81 17bf d9fe 15be 1b4c 41be 8009 cbbf
00000040: 4067 9fbf 9da2 babf 4ce7 593b 8d52 033e
00000050: 5945 0f3e 9c22 8b3f 7969 8e3f cf18 7b3f
00000060: a64d da3c 0a03 81bd 7ab4 cb3e 1276 f23d
00000070: f151 c23d 8258 3ebf e7ac b4be 3117 65be
00000080: 44ab 14bf 29b4 013f b477 3e3f 0aa3 0b3f
00000090: 2c29 873f 2ddb 343f af2e 273f b056 0fbf
000000a0: d21a 4fbf 7bfc 23bf 559b cb3d 8bce 00bf
000000b0: ee5b 40bf 4bdb 87be a027 6f3e bb3e 68bf
000000c0: aa5c 37bf 7a04 e7be 581f 44bf 3a50 f8be
000000d0: d544 b73c 80c1 983e 42ed 173e 665d f63e
000000e0: 4118 513c d7c7 cb3e d2f9 ba3e 0194 203e
000000f0: 9f52 3f3f 3c3a 233f 4e93 4f3f 95d2 1b3e
00000100: 37ec 063f e54b 103f 4c2e 09bf 7e6f 3bbf
00000110: c817 1abf a2d8 90be 382b 4bbf 9a18 3fbf
00000120: e999 ef3e 10d1 863e df2f 573e 679a 553e
00000130: d995 a73d 2185 bf3e 2cae 8fbe f9ab 57bf
00000140: 249e 34bf 8174 0cbf 9c44 47bf 9ba2 46bf
00000150: bc91 703c c7c4 31be e7b5 b2be 2e76 55bd
00000160: c664 263d f40c 923d a921 843f 1d8b 0c3f
00000170: 204d fa3d 5e8b b1be 8f3d 76be e120 b1be
00000180: 01a7 053e 2d95 313f a50c 5d3f c46f 523f
00000190: 9029 6c3f 13a1 3e3f 5bc7 0b3e d0d0 b93e
000001a0: 81bb 9c3d bc4d 8dbf 5106 bcbe b4e3 5dbf
000001b0: 8c7e 583e cb3c dc3e 3ff0 f33d 2813 21bc
000001c0: 81dc 093e ce72 b43d f073 f2be 69ca 63be
000001d0: ac32 70bd 4821 223f 68ff 1d3f e4bf d93e
000001e0: e7c4 433e 6a26 d33d 4d6e 3b3d 7032 3bbe
000001f0: 9d8e 95be 2864 e1be 07df d23c 1f7a 47bf
00000200: 6664 103e c2a2 4bbe f075 1fbe 1250 87bd
00000210: 1157 e3be dc08 003e 42fc a83e 8f56 3d3f
00000220: a425 813e 1011 9b3e 23a4 653b 50ce ac3e
00000230: e935 2c3f 50b6 11bf ddcf 46bf 61d9 27bf
00000240: ad48 cc3e 039a 443f 63ca 6f3f f2a7 023f
00000250: 4320 193f 00af 8c3e 58b4 cebe 85ab 65be
00000260: 7eb5 20bf 2d89 32bf 6173 24bf 1d30 d0be
00000270: 651c 55be ed95 12be 13ba 9dbe c0e6 b7bd
00000280: 4b31 32be 1109 72be d4de 08be 39dd 1f3f
00000290: a98e 213f f8c6 2e3e 5653 dd3d 5432 44bd
000002a0: 4eda 8fbf a798 9cbf 97c1 4dbf e15a 10bf
000002b0: 11c7 18bf bece ff3e c12f 0dbf 6031 02be
000002c0: a1a4 a93e 0fe0 21bf 1f23 b5bd aac2 d53e
000002d0: 07e0 d83e 8097 763f 7ba0 4bbe 8872 e9be
000002e0: 1b71 163f 38c4 7d3d e523 1bbf 0662 02bd
000002f0: e90c 36be 79c2 ecbe cbdd 61be aa6a 9dbe
00000300: 713c 5dbf 4afb 1ebf 467d 66bf 29a5 cabf
00000310: 9c28 b1bf 1c7d 8ebf e367 dc3e 102e 25be
00000320: 86f7 99be 0e57 133f 7491 163d ce2b 2bbe
00000330: 6dba 8a3f 1c28 0a3f 82c7 103e d563 743e
00000340: b4ff 3e3c 3d56 8b3e 2777 c4be 1fbd 4e3d
00000350: 8a6a e7bc 02d2 43bf 6534 1abf efc3 8fbe
00000360: 2be5 2d3e 6775 013f ad0e 8a3f 68cc e93d
00000370: 722d 3b3e 7f0d a53e 2585 59bf ed79 3fbf
00000380: faf8 63be 0a76 d63e 3024 bd3e ef3b 283e
00000390: 862a fc3d 0a1e e33e 2ef9 873e b38b 2c3c
000003a0: bf97 213f 5866 053f b1e2 ca3e 8f3a 133f
000003b0: bffe ccbe 2fd0 593d bcb7 bb3e eb59 513e
000003c0: ed9e 95bf fb55 90bf 9254 5dbf 940d 763f
000003d0: 2395 033f 0fef 95be ae79 433d 317d 91be
000003e0: f72c ddbe 4fc0 e53d 095f 173e cd88 c53e
000003f0: 7738 ad3e b32d 0f3e d87f 0fbe 4032 883e
-0.7697905 -0.87602353 -1.4200764 -0.24529736 -0.38059768 -1.0404555 0.15012915 0.34380063
0.09470304 0.20862027 -0.0943618 -0.36303172 -0.5918253 -0.14647998 -0.18876688 -1.5862274
-1.2453384 -1.4580876 0.0033249436 0.1282446 0.13991298 1.0869937 1.1125938 0.9808473
0.026648354 -0.06299408 0.3978613 0.118389264 0.09488285 -0.743538 -0.35288164 -0.22372128
-0.5807383 0.5066553 0.744014 0.5454565 1.055944 0.70646936 0.6530561 -0.5599165
-0.809003 -0.6405713 0.099417366 -0.5031516 -0.75140274 -0.26534495 0.2335496 -0.9072072
-0.7162577 -0.45120603 -0.76610327 -0.48498708 0.022371689 0.2983513 0.148366 0.48118132
0.01276213 0.39800903 0.36518723 0.15681459 0.74735445 0.63760734 0.81084144 0.1521705
0.52704185 0.56365806 -0.5358627 -0.73217 -0.6019254 -0.28290278 -0.7936282 -0.74646914
0.46797112 0.26331377 0.21014355 0.20859681 0.08182878 0.37406257 -0.2806257 -0.84246784
-0.70553803 -0.5486527 -0.77839065 -0.77591866 0.014683183 -0.17360221 -0.34904405 -0.052114658
0.04062345 0.07131377 1.0322772 0.5489977 0.12221742 -0.3467664 -0.2404692 -0.34595397
0.13051988 0.6936825 0.8634742 0.8220179 0.9225092 0.7446453 0.13650267 0.36292124
0.07652951 -1.1039348 -0.3672357 -0.8667557 0.21142024 0.4301513 0.11911058 -0.009831227
0.13463022 0.0881096 -0.47354078 -0.22245182 -0.058642074 0.63332033 0.61717844 0.42529213
0.19118081 0.10310061 0.045759488 -0.18280959 -0.29210368 -0.44021726 0.025741113 -0.77920717
0.14100799 -0.19886306 -0.15572333 -0.06607069 -0.44402364 0.1250338 0.33004957 0.739602
0.2522403 0.30286455 0.003504046 0.33751154 0.6726976 -0.5691881 -0.77660924 -0.6556607
0.39899197 0.76797503 0.9366819 0.51037514 0.5981485 0.27477264 -0.40371966 -0.22428711
-0.62776935 -0.69740564 -0.64238554 -0.40661708 -0.20811613 -0.14315005 -0.30806026 -0.08979559
-0.17401616 -0.23636271 -0.13366252 0.62446934 0.6310831 0.17068088 0.10806911 -0.04789956
-1.1238496 -1.2234086 -0.8037352 -0.5638867 -0.5967875 0.4996242 -0.5515099 -0.12714148
0.33133414 -0.6323251 -0.088445894 0.4175008 0.4235842 0.9632492 -0.19885437 -0.45595193
0.58766335 0.061954707 -0.60601646 -0.031831764 -0.17778362 -0.4624212 -0.22057264 -0.3074544
-0.8642035 -0.62102187 -0.900349 -1.5831653 -1.3840518 -1.113193 0.4304801 -0.16130853
-0.30071658 0.5755471 0.03675981 -0.16715929 1.0838143 0.5396745 0.14138606 0.23866208
0.011657644 0.27214232 -0.38372156 0.05047333 -0.028249044 -0.7649232 -0.602362 -0.28079173
0.16981952 0.50569767 1.0785729 0.114159405 0.18279055 0.3223686 -0.8496879 -0.7479542
-0.22262946 0.41886932 0.3694167 0.16429113 0.12312798 0.44358855 0.26557297 0.010531354
0.6312217 0.5210929 0.39626077 0.5751123 -0.40038106 0.053177055 0.36663616 0.20444457
-1.1689125 -1.1276239 -0.8645717 0.9611447 0.5139944 -0.2928395 0.047723465 -0.28415826
-0.43198368 0.112183206 0.14782347 0.38580933 0.33832142 0.13982277 -0.14013612 0.26600838

weight f4 [64]
00000000: e12e 753f bce3 953f 21b7 9e3f 74c2 793f
00000010: 13f0 543f ad7b 693f 0237 4c3f 4514 3f3f
00000020: 9afc 813f a944 3d3f 9586 523f 8094 353f
00000030: 771c d53f 8a81 963f 1917 823f cb1b ec3e
00000040: 50a6 8f3f 8eb4 933f 813a 973f 436d 8b3f
00000050: 2033 833f ef7f 863f 80f0 a03f 9f7d 893f
00000060: e486 7e3f 5791 353f fe18 b23f e03e 493f
00000070: 3914 3f3f 842e 3f3f cb89 813f 084a b33f
00000080: f80e 1a3f 47d4 953f 976d ed3e a5eb a43f
00000090: aac4 743f 1319 973f 797d 8a3f df68 513f
000000a0: 05da 543f ebde 9d3f 4166 913f 2f26 0f3f
000000b0: d10e 4d3f 97bd 823f 5420 643f 01f2 663f
000000c0: 916f 663f bec8 293f c83e c73f 325a 773f
000000d0: ab1e 9c3f 80e2 903f ade1 1a3f c2ce f53e
000000e0: e561 863f 39a0 823f dc96 a03f 6da2 b03f
000000f0: 64a2 7e3f 9cb5 573f 4214 2e3f 791c 703f
0.95774657 1.1710124 1.2399637 0.97562337 0.83178824 0.9120434 0.79771435 0.74640304
1.0155213 0.7393289 0.82236606 0.7092972 1.6649312 1.1758282 1.0163299 0.46114954
1.122263 1.1539476 1.1814729 1.0892719 1.0249977 1.0507792 1.2573395 1.0741462
0.99424577 0.70924896 1.3913877 0.78611565 0.7464023 0.7468035 1.0120176 1.4006968
0.6017909 1.1705407 0.46372673 1.2884413 0.95612586 1.1804527 1.0819541 0.81800646
0.8314517 1.2333654 1.135933 0.5591764 0.80100733 1.0214108 0.8911183 0.9021302
0.90013987 0.66321933 1.5566034 0.96622 1.2196859 1.1319122 0.60500604 0.48009306
1.0498625 1.0205146 1.2546039 1.3799568 0.9946654 0.8426149 0.6799966 0.93793446

bias f4 [64]
00000000: 44a5 a0be 0e99 5bbf d4fb d6be 096c 84bf
00000010: 2aa4 27bf 4c5e 88bf 0746 44bf 9d36 8fbf
00000020: ef52 2cbf 60ff 16bf 38d5 9bbf 6f65 65bf
00000030: 9fc2 9cbf c4ce 53bf cf98 89bf 3df4 81bf
00000040: 6d0c 0ebf 2821 61bf a091 afbf 8377 87bf
00000050: df17 6fbf 7877 ffbe 2155 88bf 2af2 41bf
00000060: 4da8 52bf 51e5 42bf f6f1 a8bf 10e4 67bf
00000070: 7bc9 35bf 3e56 8cbf 3c59 08bf c19b 74bf
00000080: d9d4 90bf 10f3 efbd 69ac 20bf 2774 73bf
00000090: c1e8 94bf edd4 e2be 85a5 0bbf b102 6abf
000000a0: a5b1 08bf c386 6ebf a89f 85be 9707 4cbf
000000b0: 21bb 82bf a911 00bf 4440 93bf 70d8 34bf
000000c0: 925b 0dbf 0f6c 62bf 6aac e9be b113 2cbf
000000d0: 51ea 65bf 41d9 96be cc2b 28bf 0223 83bf
000000e0: 6052 70bf 5a6f 8fbf d195 86bf e7ba 95bf
000000f0: b5ee 75bf 3683 2ebf a076 8abf 2ba4 dabe
-0.31376088 -0.8578042 -0.41989005 -1.034547 -0.6548487 -1.0653777 -0.76669353 -1.1188542
-0.67314047 -0.5898342 -1.2174444 -0.896079 -1.2246894 -0.82737374 -1.0749758 -1.0152661
-0.5548771 -0.8794122 -1.3716316 -1.0583347 -0.933958 -0.49895835 -1.0650979 -0.7576014
-0.82288057 -0.7613116 -1.3198841 -0.9058237 -0.7101056 -1.0963819 -0.5326116 -0.9555016
-1.1314956 -0.11716282 -0.6276308 -0.9509911 -1.1633531 -0.44303074 -0.5454944 -0.91410357
-0.53396064 -0.9317438 -0.2609837 -0.7969908 -1.0213357 -0.5002695 -1.1503987 -0.7064276
-0.5521785 -0.88446134 -0.45639354 -0.67217547 -0.89810663 -0.29462627 -0.6569183 -1.0245059
-0.93875694 -1.1205857 -1.051447 -1.1697663 -0.96067363 -0.6816896 -1.0817451 -0.42703375

running_mean f4 [64]
00000000: 8628 5ec0 f11b 63c1 3969 60c1 778c 49bf
00000010: 8311 323e 0351 29c0 874a 56bf 6db1 15c0
00000020: 5236 82c0 868c 44c1 301e 77c0 8dad 1bc1
00000030: 428f 2dc1 f345 2cc1 aa6a 1fc1 5e61 2b41
00000040: 0473 33c1 c62b ecc0 7d93 b1c0 0247 eac0
00000050: d4eb 77c0 baa7 09c1 659b 18c1 4497 7ec0
00000060: 5ad4 9bc0 ee58 ddc0 4dcf 2ac1 388b 3340
00000070: 44bb 2dc1 b4a7 1241 4ce3 07c1 7c53 31c1
00000080: 3214 5941 976f cac0 32f7 fcc0 b9db a4c0
00000090: aac0 c240 f198 5fc1 a7b4 2dc1 6eec 16c1
000000a0: 8710 92c0 2b40 35c1 059b 8cc1 308d 95c0
000000b0: 5ce8 6bc0 88b8 19c1 16c6 d2c0 f433 96c1
000000c0: 3af7 e2c0 a34d dcbf ee62 69c1 b4d4 d4c0
000000d0: 7716 15c0 01b2 55c1 7293 c7bf b74a 8e3f
000000e0: 168b f0c0 ccea b2c0 2c54 1ac1 525b c4c0
000000f0: 7d76 d8c0 3750 0ac1 bc3f 1d41 2d88 dfc0
-3.4712234 -14.194322 -14.025689 -0.7872996 0.17389493 -2.6455696 -0.8370747 -2.3389542
-4.069131 -12.2843075 -3.8612175 -9.729871 -10.847475 -10.767077 -9.963541 10.711271
-11.21558 -7.3803434 -5.549254 -7.321168 -3.8737688 -8.603449 -9.537938 -3.9779825
-4.869672 -6.9171057 -10.675611 2.8053722 -10.858219 9.165943 -8.492992 -11.082882
13.5674305 -6.326122 -7.905175 -5.1518216 6.0860186 -13.974839 -10.856605 -9.432722
-4.5645175 -11.328166 -17.575693 -4.673485 -3.686057 -9.607552 -6.5866804 -18.775368
-7.092679 -1.7211193 -14.586653 -6.6509647 -2.3294961 -13.355958 -1.5591872 1.1116551
-7.5169783 -5.5911617 -9.64555 -6.1361475 -6.764464 -8.644584 9.82806 -6.985373

running_var f4 [64]
00000000: 1855 7542 adf6 e142 35ba 1d43 e824 4042
00000010: 7723 be42 76b8 6442 aaf5 8a42 4f26 4042
00000020: c524 8842 9be4 8042 02f3 6f42 37f8 8242
00000030: 9b89 cc42 5985 0343 9cea 8d42 9fe1 3a42
00000040: 8449 8f42 bc1a b642 a29a 6c42 a10e b542
00000050: 663c 6b42 c572 a542 cf85 e942 07ab cd42
00000060: 5704 8442 0c26 7b42 057a ee42 a7c5 4f42
00000070: 9118 9842 c92a 6c42 6641 b142 75fd b442
00000080: 56e8 db42 3f96 c242 05a6 2542 4313 8a42
00000090: a4ac ae42 b3d5 0843 450b b542 9ea9 7c42
000000a0: 7cca 6242 b761 de42 15c1 5d43 d12b 2442
000000b0: 8793 7742 c8e0 d342 608c 6042 2993 de42
000000c0: 8d22 5842 d4f7 8e42 9a04 1543 805c 5942
000000d0: d789 b542 fe79 2e43 aa73 4c42 5bbb e641
000000e0: 50b4 9642 36ba 8b42 bab2 c142 638b 7042
000000f0: bd86 4a42 29ef 8042 04d8 9542 2941 a942
61.3331 112.98179 157.72737 48.03604 95.06927 57.180138 69.47981 48.03741
68.071815 64.446495 59.987312 65.484795 102.26876 131.52089 70.95822 46.720333
71.643585 91.052216 59.15101 90.52857 58.808983 82.72416 116.761345 102.83404
66.00848 62.787155 119.23832 51.94302 76.04798 59.041782 88.62773 90.49503
109.95378 97.29345 41.41213 69.03762 87.33719 136.83476 90.52201 63.16564
56.69774 111.19085 221.75423 41.04279 61.89407 105.939026 56.137085 111.28742
54.03374 71.48404 149.01797 54.340332 90.76922 174.47653 51.112953 28.841482
75.35217 69.86369 96.849075 60.13612 50.63158 64.46711 74.921906 84.627266

weight f4 [64, 64, 3, 3]
00000000: 707b 9a3d 3a93 08bd 96f9 2839 9aac bdbe
00000010: c857 d7be 6a86 cabe 4fce 19be 69d7 3dbe
00000020: c5b8 c2bd 6079 903e 9034 db3e 6ee6 ee3e
00000030: 5a48 3f3d 585d 043e 2056 0a3e 8110 e2bd
00000040: 3a71 a0bd 4de1 28be a0ed 163c 8852 b13d
00000050: 2016 073e 0983 333d a467 b13d 4772 9d3c
00000060: ac1a 9cbc 57f4 3bbd 2ecf 74bd 88e1 89bc
00000070: 40af abbd fbe7 82bd 4b1a 2bbd 6a4a 0ebe
00000080: e456 2cbe 3786 86be 95b9 babe 6659 69be
00000090: e1be e7be f3bb ebbe cfd5 8dbe 5395 ddbe
000000a0: dad8 fdbe 1d7d b1be f2ed b7be 1d27 eabe
000000b0: 0361 b1be d0a0 71bc f4bb 17bd 9ba5 f7bd
000000c0: a69e dbbc 49f5 8dbd 862f b1bd e0f3 9dbd
000000d0: 9b39 36be 9cf4 2fbe f7c2 9ebe ebc6 babe
000000e0: f1f9 fcbe f717 aebd 82f2 abbe b6c5 05bf
000000f0: a53a d0bd 65ef 10be 0983 9ebe 2156 553e
00000100: 7c36 a63d 7be7 ae3d bd1d 55bd 76e5 11be
00000110: c808 06be e46b febd 0bcf 48be e903 5fbe
00000120: e4c5 d1be 52c5 febe 1c54 9ebe a7fc 65be
00000130: 97da 81be ec1e 0a3d f672 18be 7f01 5bbe
00000140: 8a02 cabd 6a4e 04be 1fb4 52be 73a8 1ebe
00000150: 5b58 4bbe 8b36 96be 60e4 b0be 83b8 e1be
00000160: 9753 e5be eb8a c5be e495 933d 0091 21bd
00000170: 2f39 17be 60e6 2cbe 15b6 69be a89d a8be
00000180: 429f 9abe 16bf 56be 25c9 4dbe 490c 1ebe
00000190: cf31 72be 72cb b8be bdcb 43bd 1a5b 2cbe
000001a0: 02c5 2fbe ddf3 debd 9795 51be d095 07be
000001b0: fc40 b43e ad63 8a3e 759c 3b3d 23be f43d
000001c0: 5ad5 073e a010 343e 837f 48bf 57ce 06bf
000001d0: e683 25bf 9a9a 99bd e686 dbbd d241 19be
000001e0: 232a b63d 4106 acbd a0af 93be 79dc ab3e
000001f0: cabc 1d3e 60a7 1ebe aa19 97bd 5a97 98be
00000200: fa2a 9bbe 3b32 0fbe 98f6 0dbe d8f1 89be
00000210: 207f b83d 0ffa 383e 2219 663e 4e46 6e3d
00000220: cd12 f9bc 6826 84bd 9488 833b 2424 533b
00000230: 1360 ddbc 9ebc 22be 6d55 24be b704 f2bd
00000240: 6158 bebd a85f 8d3d c60d 123f 9344 683d
00000250: f500 543e 0760 ae3e 8e1d cfbe 7c3b 9cbe
00000260: aacc 18bd a215 c5be f3e1 42be bbf5 2ebd
00000270: 6c33 abbe 8a67 12be dc91 99bd 0f96 10be
00000280: 45dd 8dbc 5d1e 01bd 8a26 963d bf2e acbd
00000290: 9645 39be d7d2 56be 8d3d eebe b02b 0bbf
000002a0: 3366 e6be 2677 07bf 8d85 2cbf bdda 543d
000002b0: 5f4a bfbd ba8b 03be 3318 62bd 3889 2abe
000002c0: 1c72 73be 9afc 03be c071 09be a134 3abe
000002d0: cde6 96bd 4258 febd 38a9 19be f965 09be
000002e0: 8e63 23be 7228 8ebe 0c4e 87be 3d27 dbbe
000002f0: 5ec5 b0be 4a96 a6ba efab 52be 4d9e 63be
00000300: e3ca abbd 5c7b 1abe 4c3e 54be 1525 7c3e
00000310: 5ae6 253e b962 733e a6cc a0be d967 9ebe
00000320: ec8d bdbe 1e71 233d 8f6e 863d 78b0 edbd
00000330: 9503 2d3f 81a1 3b3f 67ed 103f 96eb d43d
00000340: 52dc 0fbe 7d8c 8abe 0b5f 683b 6439 c8bd
00000350: be72 48be 44f5 99bd 9b16 05be e407 31be
00000360: 9fed a3be c2bd babe cdfc 52be 2521 3ebe
00000370: 7dba a7be 8b42 a1be 7903 5dbe f6a5 a2be
00000380: 34fb 7dbe 6bc3 8fbe 44c4 95be c8a7 9abe
00000390: 8570 83be 03f7 81be dffd 85be b2c4 52be
000003a0: 6891 94be d85e 82be 9071 993e 8b1d ca3d
000003b0: 12ae 23bd fe92 c33c 0233 0dbe 5d2b 16be
000003c0: e26e 7cbe c2ad 85be d917 4cbe 1d9a 1dbe
000003d0: 6d96 41be 4407 6abe e02a b7bb ac07 2fbe
000003e0: 7d55 69be 5455 dbbe da58 01bf 1065 13bf
000003f0: dd67 8dbe 4bb4 81be a2c2 1ebe cba2 59be
0.07543075 -0.03334353 0.00016114707 -0.37045747 -0.4205916 -0.39555675 -0.15020107 -0.18539204
-0.09507898 0.28217602 0.4281354 0.4666018 0.04669986 0.12926233 0.13509417 -0.11038304
-0.07834096 -0.16492195 0.009211928 0.0865832 0.13192034 0.043826137 0.08662346 0.01921953
-0.019055687 -0.045887318 -0.059767894 -0.016831174 -0.08383036 -0.06391903 -0.04177312 -0.13895574
-0.16830021 -0.26274273 -0.36469713 -0.22788009 -0.45262817 -0.4604183 -0.27702186 -0.43277988
-0.49579507 -0.34665766 -0.35923725 -0.45732966 -0.34644327 -0.014747813 -0.03704448 -0.120921336
-0.026809048 -0.0693155 -0.086516425 -0.07712531 -0.17795412 -0.17183155 -0.3100812 -0.36479887
-0.4940944 -0.08500665 -0.33583456 -0.5225481 -0.101674356 -0.14153822 -0.30959347 0.20833637
0.08115861 0.08540245 -0.052030314 -0.14247689 -0.13089287 -0.12422922 -0.1961023 -0.21778835
-0.4097129 -0.49759918 -0.30923545 -0.2245966 -0.25362083 0.033720896 -0.14887604 -0.2138729
-0.098637655 -0.12920538 -0.20576523 -0.15493946 -0.19857924 -0.29338488 -0.34549236 -0.44086084
-0.44790336 -0.38582548 0.07206324 -0.039444923 -0.14767908 -0.16884756 -0.22823365 -0.32932782
-0.3019963 -0.20971331 -0.20096262 -0.15434374 -0.23651813 -0.36092716 -0.04780172 -0.16831627
-0.17164996 -0.10886357 -0.2046722 -0.13240743 0.3520583 0.27029172 0.045803506 0.11950328
0.13264981 0.17584467 -0.7831957 -0.526586 -0.64654386 -0.07500191 -0.10719089 -0.14966515
0.08894756 -0.0839963 -0.2884493 0.33566645 0.15404049 -0.15493536 -0.07377942 -0.29802972
-0.30306226 -0.13984005 -0.138636 -0.26942325 0.09008622 0.1806414 0.22470525 0.058172517
-0.030404473 -0.06452638 0.004014084 0.0032217586 -0.02702335 -0.15892264 -0.16048212 -0.118173055
-0.09294201 0.069030106 0.57052267 0.056706022 0.2070349 0.34057638 -0.40452236 -0.30514133
-0.037304558 -0.38493067 -0.19031505 -0.042714816 -0.3343767 -0.1429731 -0.074985236 -0.14119743
-0.017317424 -0.031523097 0.073315695 -0.084073536 -0.18092951 -0.20978867 -0.46531335 -0.54363537
-0.44999847 -0.5291618 -0.6739128 0.051966418 -0.09340357 -0.1284627 -0.05519886 -0.16653907
-0.23773998 -0.12889329 -0.13422298 -0.18184139 -0.073682405 -0.124191776 -0.15005958 -0.13417806
-0.15955946 -0.27765232 -0.26426733 -0.42803374 -0.3452558 -0.0012709585 -0.205734 -0.22228356
-0.08388307 -0.1508612 -0.2072689 0.2462352 0.16201153 0.23768128 -0.31406134 -0.30938604
-0.3702234 0.0399028 0.06564056 -0.11605924 0.6758359 0.7329331 0.5661225 0.10396497
-0.1404889 -0.2706031 0.003545704 -0.097765714 -0.1957502 -0.07517484 -0.12996905 -0.17288166
-0.32017228 -0.364729 -0.20604248 -0.18567331 -0.32759467 -0.3149608 -0.21583356 -0.31767243
-0.24802858 -0.2807878 -0.292513 -0.30206132 -0.25671783 -0.25383767 -0.2617025 -0.20582846
-0.29017186 -0.25462985 0.29969454 0.09868916 -0.03996093 0.023873802 -0.13788989 -0.1466498
-0.24651673 -0.2610913 -0.19930972 -0.15390821 -0.18905039 -0.22854334 -0.005589828 -0.1709277
-0.22786517 -0.42838538 -0.505262 -0.57576084 -0.27618304 -0.25332865 -0.15503934 -0.21253507

weight f4 [64]
00000000: 3f87 c43e c2bf 5e3f 7403 3b3f b30d 0c3f
00000010: 0556 a23e 3e74 4b3f eff8 083f 5d13 7f3f
00000020: 6169 363f f661 233f b888 293f 5185 033f
00000030: eb09 c43e 67e6 b53e 193b 213f 5791 263f
00000040: 39cb 613f c515 463f b953 ff3e bda7 f93e
00000050: cd6b 243f 2016 823f feb2 1c3f 52b7 3b3f
00000060: 5b50 f33e 4d10 123f 44fd 693f 70a9 533f
00000070: 1802 d13e fcba 0d3f 96d8 013f 54f1 cd3e
00000080: 2adf a83e 6bf0 623f fe73 513f f709 233f
00000090: e76f 1f3f 1430 293f fd9d 643f e512 663f
000000a0: 8ef3 553f e28c 3f3f 969c 2a3f 55bc 2a3f
000000b0: 086e f23e 95ac 5c3f a85a 203f 48e7 5d3f
000000c0: 34da 893f b469 4d3f 30fe 273f 0ac7 a23e
000000d0: 4548 533f 15ed 5d3f 73bf 2d3f 7770 a03e
000000e0: eb28 1d3f 4efe bf3e 6684 903f bbc9 473f
000000f0: 93d6 3e3f ea63 623f 004b d73e 4a94 803f
0.38384435 0.8701135 0.73052144 0.54708403 0.31706253 0.79474247 0.5350484 0.9963892
0.71254545 0.6382135 0.6622424 0.513753 0.38288817 0.35527346 0.629808 0.6506552
0.8820072 0.7737697 0.49868563 0.48760787 0.6422699 1.0163002 0.6121062 0.733266
0.47522244 0.57056123 0.9140208 0.82680416 0.4082191 0.5536344 0.5072111 0.4022318
0.3298276 0.886481 0.81817615 0.6368708 0.62280124 0.66088986 0.8930357 0.8987258
0.8357476 0.74824345 0.6664518 0.6669362 0.47349572 0.8620084 0.6263833 0.8668103
1.0769715 0.80239415 0.65622234 0.3179248 0.8253215 0.86689883 0.67870253 0.31335804
0.6139056 0.37498707 1.1290405 0.7804219 0.74546164 0.88433707 0.42049408 1.0045254

bias f4 [64]
00000000: 68fc 42bf cf0a 1abf e1a1 37bf 09e1 64bf
00000010: ab3d 12bf 1e0c 35bf a64d 4abf a8f8 1bbf
00000020: a711 21bf fce2 3cbf 4466 30bf 20b7 3dbf
00000030: 404a 12bf 045b 12bf 8a4c 30bf 6c4f 6cbf
00000040: 3f68 25bf ff7b 2ebf 927b 40bf 937d 2fbf
00000050: 360f 65bf 3ed3 36bf 8989 3ebf 5122 33bf
00000060: 8350 3cbf 7949 3bbf 4dcc 12bf 77fa 27bf
00000070: d2ab 3fbf cd79 4bbf f5ae 3fbf 29cd 1fbf
00000080: e91e 18bf 60ac 28bf c967 29bf a285 4bbf
00000090: da69 4bbf 97d5 54bf 02de 56bf 1e9f 36bf
000000a0: a471 60bf c5cb 28bf 4f87 3bbf 4414 4bbf
000000b0: a19f 93bf ffb0 1bbf 8f22 27bf 92f1 18bf
000000c0: 444b 23bf 6a38 1bbf d8be 35bf 0c86 0fbf
000000d0: 44af 24bf 7285 1abf a9b8 23bf b832 27bf
000000e0: f0e1 4dbf c929 2abf fa2e fcbe 0900 13bf
000000f0: f9dc 2abf 474c 14bf d6c2 30bf 6fb2 3fbf
-0.7616639 -0.6017274 -0.7173138 -0.89405876 -0.5712535 -0.70721614 -0.7902473 -0.60926294
-0.6291756 -0.7378385 -0.68906045 -0.7410755 -0.57144547 -0.5717013 -0.6886679 -0.9230869
-0.6461219 -0.68157953 -0.75188553 -0.68550986 -0.89476335 -0.7141608 -0.7442861 -0.6997424
-0.7356035 -0.73158985 -0.5734299 -0.65616554 -0.7487155 -0.7948273 -0.7487634 -0.62422425
-0.59422165 -0.65888023 -0.6617399 -0.7950078 -0.7945839 -0.8313841 -0.8393251 -0.71336544
-0.876734 -0.6593593 -0.7325334 -0.793278 -1.153309 -0.6081695 -0.6528711 -0.5974361
-0.6378672 -0.60632956 -0.7099433 -0.56063914 -0.64329934 -0.6035987 -0.63953644 -0.65311766
-0.8042288 -0.6647001 -0.4925459 -0.5742193 -0.6674343 -0.5792889 -0.69047296 -0.74881643

running_mean f4 [64]
00000000: 1010 bec0 015f 06c1 c82b 79c0 4119 1a40
00000010: 72d0 5bc0 9dde 9bc0 175d 8ec0 a422 83c0
00000020: f01b 3b40 9ea5 c4bf de92 053f 5051 bebf
00000030: 34e7 5cc0 7fc4 21c0 2ff4 58bf 620f bc3f
00000040: 7e78 4fc0 c001 f1bf b807 f7bf 6a38 b4c0
00000050: 930e abc0 6ef8 4fbf 4ae3 f9c0 0fe5 3ac0
00000060: f7fd 93c0 0e8a cdc0 56cb 0fc1 6f54 d1c0
00000070: 4f50 96c0 23ab 23c0 d09d d9c0 d227 9ac0
00000080: 0f4d ebbf 6810 79c0 b62c b9c0 5f96 b3c0
00000090: c327 34c0 20c8 40c0 fd2a 01c0 dd84 4ec0
000000a0: 1af5 c2bf b702 c4c0 9b62 cdc0 434f 81c0
000000b0: e832 0a40 e454 86c0 2e5d 1dbf 452d 33c0
000000c0: 4413 f8bf 7d5a cfc0 2895 8dc0 00fd c2bf
000000d0: fddd 08c1 41e8 abc0 1a9e 81c0 9d92 88c0
000000e0: ddfc 343f ba02 96c0 0c4d 04c1 1a19 60c0
000000f0: 1948 f3c0 0ca6 2bc0 1888 52c0 a54d 64c0
-5.9394608 -8.398194 -3.8932972 2.4077914 -3.4345975 -4.8709245 -4.4488635 -4.0979786
2.9235802 -1.5363042 0.52177227 -1.4868565 -3.4516115 -2.5276182 -0.84747595 1.4692194
-3.2417293 -1.8828659 -1.929923 -5.6318865 -5.345529 -0.8123845 -7.8089952 -2.9202306
-4.6247516 -6.4231024 -8.987143 -6.541557 -4.6973033 -2.5573204 -6.800514 -4.817361
-1.8382891 -3.8916264 -5.786708 -5.612106 -2.8149269 -3.0122147 -2.0182488 -3.2268593
-1.5231049 -6.1253314 -6.418287 -4.0409255 2.159357 -4.1978626 -0.61470306 -2.799638
-1.9380879 -6.479796 -4.4244576 -1.523346 -8.554196 -5.3721013 -4.0505495 -4.267897
0.7069834 -4.687833 -8.26881 -3.501532 -7.602551 -2.6820097 -3.2895565 -3.567239

running_var f4 [64]
00000000: c0ac 5941 5dd1 1d42 854f cf41 39d2 af41
00000010: ad45 2440 f3cb 0a42 6e9c d741 bb95 2c42
00000020: c2a8 da41 8cbb ac41 d872 de41 c7ce b341
00000030: d456 d740 fe39 7940 2860 a741 23f8 b341
00000040: 75fd 0842 0604 be41 0d5f 8341 1408 8541
00000050: c569 d341 4dc6 2a42 8966 0a42 597c dd41
00000060: cc20 5241 8a95 de41 1073 2b42 622a e841
00000070: 207e 0541 143b 8b41 d2d5 c141 31cf 6c41
00000080: 2c80 d540 2630 0d42 ea32 d541 f5a1 f241
00000090: 8571 cc41 ac64 8341 5fe4 2b42 f477 1442
000000a0: dfb6 0942 7ebe e241 0afa eb41 0b5b ce41
000000b0: 950b 8c41 b0b0 2b42 2432 a641 73ce f041
000000c0: 1790 3542 277e ee41 139c da41 b411 3440
000000d0: 28b7 0642 4e05 fe41 e495 c841 7948 c340
000000e0: 8f98 df41 c4ae 0941 1818 4742 41d4 da41
000000f0: 0803 f741 e688 e241 f9eb 4041 dba4 4442
13.604675 39.454456 25.913828 21.977648 2.5667527 34.69917 26.951382 43.14622
27.332401 21.591576 27.806076 22.475965 6.729349 3.8941646 20.921951 22.49616
34.247517 23.751965 16.421412 16.628944 26.426645 42.693653 34.600132 27.685717
13.133007 27.823017 42.862366 29.020695 8.343292 17.403847 24.229404 14.800584
6.671896 35.29702 26.64986 30.32908 25.55543 16.424156 42.97302 37.11714
34.428585 28.343014 29.49709 25.794455 17.505655 42.922546 20.774483 30.100805
45.390713 29.811598 27.326208 2.8135805 33.678864 31.75259 25.073189 6.1025968
27.949492 8.605167 49.77353 27.35364 30.87648 28.316845 12.0576105 49.16099

weight f4 [512, 64]
00000000: 30fd cfbc c6bb b73e 7f6e dfbe 4fa5 eabe
00000010: d8dc 89bd 112b 703e b6dd 53be fadd e33e
00000020: 8b14 cebc 63ff c0be dfb2 6a3d 436b b3be
00000030: b949 8b3d 3aee 57bd d8f9 793c c41e fdbe
00000040: b0d8 063e 92db c3be 785c 94be 91b0 71bd
00000050: 3b00 373e 43b2 dc3e 6583 44be 5c08 d3be
00000060: 3c27 0f3d 049d 843b a5d4 c53e 9735 00bf
00000070: 7439 76bc 0781 3abc 90ed c9bd d217 8b3d
00000080: 9ed9 0cbe 5059 613e 80a1 12bf 424c af3e
00000090: 0896 84be ba18 b3be ce54 de3e 0942 c7bd
000000a0: 525b 683c 56e2 cfbe cd29 0fbe 217d d5be
000000b0: 1f0d 08bf 610a b13e bade bcbd 1877 acbe
000000c0: d66c ba3e a03f 0dbf 1754 0bbe d49d 41bc
000000d0: 4c6b ecbe 0b05 f3be 3442 2ebe 7c16 cfba
000000e0: a5f5 edbd 54a5 54be 8fe0 d33e 2e25 49be
000000f0: a686 00bf 3fe7 ddbe 093e 013e c567 de3e
00000100: ab9c 80bd 307c 35be 29bb 05be da0e 913d
00000110: d642 ce3c 3987 30be 3805 8fbd 3bba 1cbe
00000120: 9719 0dbe da7b 38bb 4879 0cbe 4812 563d
00000130: 49a7 52bd 5333 aa3c 557d 173e 2dc1 193d
00000140: 03ca 02bd 2158 203d a576 c7bd 6d0a 95bc
00000150: e9f0 9e3d abf8 463d daff 003d fe86 8dbd
00000160: f04e 77bd 6ab2 6b3d af96 d43c 62f3 14be
00000170: 6899 e13b ab08 b8bd c398 6d3d f6ff 76bc
00000180: c950 fabb 525b ad3c 3e5b 81bd 862a 98bd
00000190: 9b3c 0bbe 8847 04be b1c6 823d 4dbd 41be
000001a0: 2838 f6bd bb7c cabd ee9c c1bd f5cd 0ebd
000001b0: 4674 123d a796 09bd 88ff a4bc 742c 3bbd
000001c0: 6b23 27be 08cd d83c 244e 353d 866d d2bd
000001d0: 5573 8d3d 30d9 35bd aa88 fdbd 76f0 d6bd
000001e0: 2ade 29be 71df 4f3d 75a7 823d e6b3 a03d
000001f0: 61c0 1bbc 2b0c b9bc 087b 9dbd 5ce1 dcbc
00000200: ec5e 94bd 3f0a cfbd 7881 4d3c b3b6 f1bc
00000210: ea36 0bbe 20e3 b1bd 47ad 01be f632 9cbc
00000220: 3bfb 19be 7e92 0abe 37dd d4bd 7bc1 00bd
00000230: a004 acbd 0d31 a4bb 207f cdbd 5f6f 043d
00000240: a604 1cbe 1623 6c3d b3e9 8c3d b5a1 fbbd
00000250: 0fc7 d8bd bae4 a8bd 1b51 1ebe b5d7 dfbd
00000260: 4c6e c8bd d6a6 21be d12d edbd dfde 883d
00000270: 8c50 ca3c 8b9f a9bd 986b d23c ec36 1fbe
00000280: 2aab 533c 25e8 84bd d5e6 e9bd f95a e6bd
00000290: 1dc1 9bbc 0367 8dbd 90af 3f3d afe3 503c
000002a0: a601 2b3d 2976 103d f2f0 2bbe 9b03 3ebc
000002b0: 1fd8 edbd 977f 94bd 3c9d 0a3d 35ea 1d3b
000002c0: 1353 29be 315d d13c ee42 cabd c4c3 0cbe
000002d0: 32ca 26be b3a7 b8bd ebca 94bd c7d1 66bd
000002e0: b467 6ebd cece 0abe 405a 9e3d 426f 81bd
000002f0: 0e0f c4bd fc7f fbbd 2192 ec3a 57bf 11be
00000300: 5753 90bd 69d5 bfbc b2cc 293d 89fb 813d
00000310: 5ba1 933c 3710 193d 4775 52bd 1ee2 76bd
00000320: bd20 88bb d036 0abe de41 03be 3e7a c6bc
00000330: 5414 1bbe ac7b 13be 8899 97bd d990 09be
00000340: cb18 ddbd 9c79 79bd 30fe f53c 62d7 f1bd
00000350: e762 403b ac47 bfbd 5670 34be fc73 fbbd
00000360: 8f4c 2e3d 1ef6 cabd 84a7 a4bd b413 c0bd
00000370: 76ab 30be 161f e7bc c72c ff3c cfc6 6dbd
00000380: 8327 26be 9682 d9bc 9b5d 36be f6d4 cb3c
00000390: ef8a a7bd 8ddc 2abe 050c a7bc 3be1 fcbb
000003a0: fe69 8a3d 9efe fabd 4000 ebbc 01a0 fdbd
000003b0: 33b6 1fbd 7a5d 28be 839e 0cbe 78dc 273d
000003c0: 61c4 26be 47db cbbd ae22 bb3c 15f0 1d3d
000003d0: a7b6 cbbd 7312 23be ab68 d5bd dd94 393d
000003e0: e100 41bd 9d5f 33be 4ce5 b4bd c3ca 37be
000003f0: 0735 83bd 41fa 91bd b241 3bbe b1f2 8ebd
-0.025389284 0.35885447 -0.4363899 -0.45829245 -0.06731576 0.23453929 -0.20690045 0.44505292
-0.02515628 -0.37694845 0.05729949 -0.35042772 0.06801171 -0.052717425 0.015257321 -0.49437535
0.13168597 -0.38253456 -0.28976798 -0.059006277 0.17871182 0.43104753 -0.19190748 -0.41217315
0.034949526 0.004047038 0.38638797 -0.5008177 -0.015028346 -0.011383302 -0.098597646 0.06791653
-0.1375489 0.22006726 -0.5727768 0.34237868 -0.25895715 -0.34979802 0.43424076 -0.09729392
0.014181929 -0.40602368 -0.1398079 -0.41697028 -0.5314502 0.3457823 -0.09222169 -0.3368461
0.3641116 -0.5517521 -0.13606296 -0.011817414 -0.4617561 -0.47464785 -0.17017442 -0.0015799548
-0.116191186 -0.20766193 0.41382262 -0.19643089 -0.5020546 -0.4334049 0.12621321 0.43438545
-0.06279882 -0.17723155 -0.13059677 0.07082911 0.025178354 -0.17239083 -0.06983417 -0.15305416
-0.13779293 -0.0028149993 -0.1371814 0.052263528 -0.051429067 0.020776426 0.14793904 0.037537742
-0.031930935 0.039146546 -0.097394265 -0.018193448 0.07760794 0.048576992 0.031494 -0.06910513
-0.060378015 0.057543196 0.025950758 -0.14545968 0.0068847425 -0.08986028 0.058007013 -0.015075674
-0.007639025 0.021161709 -0.06316231 -0.07429986 -0.13597338 -0.12917912 0.06385554 -0.18919869
-0.1202243 -0.09887072 -0.0945376 -0.034864385 0.03575542 -0.03359094 -0.020141378 -0.04569669
-0.16322105 0.026464954 0.044263974 -0.10274796 0.069067635 -0.04439658 -0.12379582 -0.10495083
-0.16588655 0.0507502 0.06379596 0.07846813 -0.009506316 -0.02258881 -0.07689482 -0.026962928
-0.072446674 -0.10109376 0.012543075 -0.029506063 -0.13595167 -0.08685899 -0.12663756 -0.019067269
-0.15037243 -0.13532445 -0.10393756 -0.031434517 -0.0839932 -0.00501073 -0.10034013 0.032332774
-0.15236148 0.057650648 0.06880512 -0.122867025 -0.105848424 -0.08246751 -0.15460627 -0.10929815
-0.097866625 -0.15786299 -0.115810044 0.06683134 0.02469661 -0.082823835 0.02568607 -0.15548295
0.012919227 -0.064895906 -0.11420981 -0.112478204 -0.019012982 -0.069044136 0.04679829 0.0127495965
0.04174962 0.035268936 -0.16791132 -0.011597539 -0.116134875 -0.07250898 0.033841357 0.0024095897
-0.16535597 0.025557132 -0.09876047 -0.13746554 -0.16288069 -0.09016361 -0.07265266 -0.056352403
-0.058204368 -0.13555452 0.077320576 -0.06320049 -0.09573184 -0.122802705 0.0018048921 -0.14233147
-0.07047146 -0.023417192 0.04145498 0.06346805 0.018021276 0.03736898 -0.051381376 -0.060274236
-0.0041542933 -0.13497472 -0.12818095 -0.024228211 -0.15144473 -0.14402646 -0.07402331 -0.13434161
-0.107957445 -0.06090699 0.030028433 -0.11808659 0.0029355825 -0.09339842 -0.17620978 -0.12277982
0.04255348 -0.099102244 -0.080397636 -0.09378758 -0.17252907 -0.028213065 0.031149281 -0.058050927
-0.1622601 -0.026551526 -0.17809145 0.024881821 -0.08180796 -0.16685696 -0.020391474 -0.0077172793
0.06758498 -0.122555956 -0.028686643 -0.12384034 -0.038992118 -0.16441908 -0.13732342 0.04098174
-0.1628585 -0.09953933 0.022843685 0.03855904 -0.099469475 -0.15925007 -0.104203545 0.045307983
-0.04711998 -0.17516942 -0.088327974 -0.17948441 -0.064065985 -0.0712781 -0.1828678 -0.069798835
