model_agePrediction_200.pth (torch, 412034 bytes, 23 tensors)

weight f4 [32, 1, 3, 3]
0	0x403156c1	2.77092
1	0x3effd09c	0.49963844
2	0xbf7f5b97	-0.9974913
3	0x3f888abc	1.0667338
4	0xbfe0546f	-1.7525767
5	0x3fc208e6	1.5158966
6	0xbf8caebb	-1.0990824
7	0xc0c38df5	-6.1110787
8	0xbfd42fe6	-1.6577117
9	0x40605df3	3.5057342
10	0xbee9f349	-0.45693424
11	0xbda34890	-0.079728246
12	0xbf84b34a	-1.0367215
13	0xc084c142	-4.148591
14	0x3f4bf9d5	0.7967809
15	0x3ed84b0f	0.42244765
16	0xbfabc61c	-1.3419833
17	0x40275921	2.614815
18	0xbf2c4c59	-0.67304
19	0xbf06bd0b	-0.52632207
20	0xbf00e5d2	-0.5035068
21	0xbef279c2	-0.4735852
22	0xbe8443e0	-0.25833035
23	0x3d8d1e84	0.06890586
24	0xbf3d1608	-0.7386174
25	0xbeea1ebe	-0.4572658
26	0xbf5791f8	-0.84207106
27	0xbf3e6dcd	-0.7438629
28	0xbfeb3de9	-1.8378268
29	0xc0a26581	-5.0748906
30	0x3f4dd038	0.8039584
31	0x3fb258ec	1.3933387
32	0xbf5699fc	-0.8382871
33	0x3fe54ca7	1.7914017
34	0x4038e6f6	2.8890967
35	0xbe6c2762	-0.23061898
36	0xbff9982e	-1.9499567
37	0xbf2cedbc	-0.67550254
38	0xbc0c6474	-0.008568872
39	0x3f9d32f3	1.2281173
40	0x3ffaa351	1.958109
41	0xbedd9d9a	-0.43284303
42	0x400f8709	2.242617
43	0x410e9b09	8.91285
44	0x3ed7e221	0.4216471
45	0xbe5a0376	-0.21290383
46	0xbfc12faf	-1.5092677
47	0xbfcfc447	-1.6231774
48	0x3fc6d57e	1.5533903
49	0xbe31984e	-0.17343256
50	0xbf30a83e	-0.6900672
51	0x3ff7211d	1.930698
52	0x3f35f5ab	0.71077985
53	0x3debb0dd	0.11508343
54	0x3fd98577	1.6993855
55	0x3f4621eb	0.77395505
56	0xbf05c157	-0.5224814
57	0x402b30af	2.6748464
58	0x3f5daf9e	0.86596096
59	0xc001eed1	-2.0302012
60	0x3f4ab568	0.79183054
61	0x3dea1984	0.11430648
62	0xc098105b	-4.7519965
63	0xc0380143	-2.875077
64	0xbf4dfbd2	-0.8046237
65	0xbf8c92d4	-1.0982308
66	0xbfa64bab	-1.2991842
67	0x3e5ec452	0.21754578
68	0xbff2ceaf	-1.8969325
69	0x3fb238a6	1.3923538
70	0x407ace96	3.918859
71	0x400a8954	2.1646318
72	0x3c3026d0	0.010751441
73	0x3e688a7e	0.2270908
74	0x3f7d83e6	0.99029386
75	0x3ee71045	0.451296
76	0x3f1ad93c	0.60487723
77	0xbf8ed626	-1.1159103
78	0x3e339f15	0.17541154
79	0x3f4bdf53	0.7963764
80	0x3d7b44e2	0.06134499
81	0xbdb547e5	-0.088516034
82	0xbe786f9c	-0.24261326
83	0xbfbba00d	-1.4658219
84	0xbef23a4d	-0.47310105
85	0xbf9e15ff	-1.2350463
86	0xc02bcdd4	-2.6844378
87	0x4091c3fe	4.555175
88	0x40514638	3.2699108
89	0x3f358f57	0.70921844
90	0xbf5c2ca8	-0.8600564
91	0xbe9add53	-0.30246982
92	0xbe8ad5ab	-0.2711614
93	0x3f85af11	1.0444051
94	0x3efbd572	0.49186283
95	0x3f078d7f	0.5295028
96	0x3faf6db4	1.3705354
97	0x3f8bb4a1	1.0914499
98	0x3fa31be0	1.2742882
99	0xbc328aa3	-0.010897311
100	0x402bfaf6	2.6871924
101	0xc0565ec7	-3.3495347
102	0x40163685	2.3470776
103	0xbf8a0dd3	-1.0785469
104	0xbf7a9bfb	-0.9789426
105	0xbf8a2023	-1.0791057
106	0xbfc2d166	-1.5220153
107	0x4047ccb8	3.12187
108	0x3e86350f	0.26212355
109	0x3f2a5b25	0.66545326
110	0x3f43aed2	0.7643863
111	0xbf92dc3f	-1.1473464
112	0x3ff2adf3	1.8959335
113	0x4088701a	4.2636843
114	0xbf894024	-1.0722699
115	0xbfad8dfe	-1.3558958
116	0xc05a35d7	-3.4095361
117	0xbf1a63cd	-0.60308534
118	0xbf1dcb52	-0.6163837
119	0xbf211aeb	-0.629317
120	0xbf451bf9	-0.7699581
121	0xbe189f20	-0.14904451
122	0x3caa11e1	0.020760478
123	0xbf5879e5	-0.84560996
124	0xbe4cb966	-0.19992599
125	0xbf55b68b	-0.83481663
126	0xc02fcabf	-2.7467496
127	0xbe6282ba	-0.2212018
128	0x402a8fc0	2.6650238
129	0xbec8e15f	-0.39234444
130	0xc08caf6d	-4.3964143
131	0xbff186eb	-1.8869299
132	0x3fdac526	1.7091415
133	0xbf948329	-1.1602527
134	0xbfa2fa40	-1.273262
135	0xbec13fa3	-0.37743863
136	0x3e6fdc3d	0.23423858
137	0xbe3237cc	-0.17404097
138	0x3e854ebe	0.26036638
139	0x3f399ef3	0.7250816
140	0x3f01af3d	0.5065802
141	0x3e18cad0	0.14921117
142	0x3f4bc6fc	0.796005
143	0x3f8f2b60	1.1185112
144	0x3f91b576	1.1383502
145	0x3ea87fa7	0.3290989
146	0x3f5113e4	0.81670976
147	0x3e9d907a	0.3077429
148	0xbee67c88	-0.45016885
149	0x3e4155a5	0.18880327
150	0x3f2c56aa	0.6731974
151	0x3f35d20d	0.7102364
152	0x3f6f4a5b	0.9347283
153	0xbe951d27	-0.29123804
154	0xbdcdb7ff	-0.1004486
155	0xbda93149	-0.082613535
156	0x3e0e3b82	0.13889888
157	0x3f70d1cd	0.9407013
158	0x3e130320	0.14356661
159	0x3f13b075	0.5769113
160	0x3fecfcae	1.8514612
161	0x3f4aa3e2	0.79156315
162	0xbf1db1f0	-0.61599636
163	0xbe5ba7e0	-0.21450758
164	0xbdb0f777	-0.0864095
165	0x3eb728bf	0.35773274
166	0x3e80ac46	0.25131434
167	0x3ee3e9ae	0.4451422
168	0x3f29236d	0.6606968
169	0x3f55f805	0.8358157
170	0x3ea34e97	0.31895897
171	0xc0223ce6	-2.534967
172	0x3f07f7d1	0.5311251
173	0x3f88383a	1.0642159
174	0xc047ce08	-3.1219501
175	0xbfe91934	-1.8210816
176	0xbf5c06e5	-0.8594802
177	0xbeff72c3	-0.49892244
178	0x403b633f	2.9279325
179	0x405eefd8	3.483389
180	0x3f3ea003	0.7446291
181	0x3f884f6e	1.064924
182	0x402a26c4	2.658616
183	0xc066d6a1	-3.60685
184	0xbfdb5b03	-1.713715
185	0x3fcd336a	1.6031315
186	0xc0390507	-2.8909318
187	0x3f0687de	0.52551067
188	0x3fc12da6	1.5092056
189	0x3fa86002	1.3154299
190	0x3f9ab432	1.2086241
191	0x404ad437	3.1692026
192	0xbe8ed561	-0.2789717
193	0xbfc38b67	-1.5276917
194	0x3f06e08b	0.52686375
195	0xc05e65de	-3.4749675
196	0xc08a915a	-4.330243
197	0xbffbe02b	-1.9677786
198	0x40300e0b	2.750857
199	0x404a77f0	3.1635704
200	0xbe1db332	-0.15400389
201	0x3f88d663	1.0690426
202	0x3f8984c8	1.0743647
203	0xc04006ac	-3.0004072
204	0xc041b88c	-3.0268888
205	0xbf1af710	-0.6053324
206	0xbffdd943	-1.9831928
207	0x3ea30451	0.3183923
208	0xbe268fee	-0.16265842
209	0x3d638290	0.055544436
210	0xbfb4fd73	-1.4139847
211	0xbf96357c	-1.1735072
212	0x3f040fc0	0.5158653
213	0xbf7d71d7	-0.9900183
214	0xbf2be247	-0.67142147
215	0xbef74143	-0.48291978
216	0x3f9bb4c7	1.2164544
217	0xbed80722	-0.42192942
218	0x3f08a97d	0.5338362
219	0x3f2d6615	0.6773389
220	0xbf435bba	-0.7631184
221	0x3ea256bb	0.31706795
222	0x3f6e67f0	0.93127346
223	0xbd351243	-0.04420687
224	0x3f915e28	1.1356859
225	0x3f8d2e5c	1.1029773
226	0xc08507d0	-4.1572037
227	0x3de56455	0.112007774
228	0x3f311fd7	0.6918921
229	0xc032ef06	-2.7958388
230	0x3f92e090	1.1474781
231	0x3fca50ba	1.5805886
232	0xbf63e277	-0.8901743
233	0x4043b3c8	3.057848
234	0x3f01f58c	0.507653
235	0xc03ed2c8	-2.981615
236	0x3fea7481	1.8316804
237	0x3fca0a25	1.5784346
238	0xc037d005	-2.8720715
239	0x404a1aac	3.157878
240	0x3fe65441	1.7994462
241	0xbfbaa477	-1.4581441
242	0xbfc6e447	-1.5538415
243	0xbe6e84fd	-0.23292919
244	0x3d732386	0.05936005
245	0xbce97b65	-0.028501222
246	0xbe7237d4	-0.23654109
247	0x3f035e9e	0.5131625
248	0x3f636531	0.8882628
249	0x3eba6e8b	0.36412463
250	0x3f6dca11	0.92886454
251	0x3dba12ad	0.090855934
252	0x3f40dfbb	0.75341386
253	0xbf1ce768	-0.612906
254	0x3fad7eb5	1.3554293
255	0x3f7c2ecb	0.985089

weight f4 [32]
0	0x40039ad9	2.0563262
1	0x402afe35	2.6717656
2	0xbe2736d9	-0.16329516
3	0x3fb5ba01	1.4197389
4	0x3fca3470	1.5797253
5	0xbc2d7ae6	-0.010588383
6	0x4041146e	3.016872
7	0x403eb860	2.9800034
8	0x3e3ae5ee	0.18251774
9	0x3f41c7a7	0.7569527
10	0x3e87749e	0.2645616
11	0x401ba15f	2.4317243
12	0x400c190d	2.189029
13	0xbe024a8a	-0.12723747
14	0x3ff362a6	1.901448
15	0x3e26abff	0.16276549
16	0x3e54f412	0.2079623
17	0x3e85c3ff	0.26126096
18	0x3df1d123	0.11807468
19	0x40322e0a	2.78406
20	0x407d462a	3.9574075
21	0x400cdca9	2.200968
22	0x401116a1	2.2670062
23	0x3eabfa1c	0.33589256
24	0x3ebb565a	0.3658932
25	0x4054a183	3.322358
26	0x402ece28	2.7313328
27	0x3e3dcada	0.18534413
28	0x4035184e	2.8296084
29	0x3fffc8d6	1.9983165
30	0x401b7b89	2.429415
31	0x403c72c1	2.944504

bias f4 [32]
0	0xbfae044e	-1.3595064
1	0x40267420	2.6008377
2	0xbf6102e1	-0.8789502
3	0xbec0e9a2	-0.37678248
4	0xbffd734f	-1.9800814
5	0xbdf37b73	-0.118887804
6	0x3f25b41a	0.6472794
7	0x40341b03	2.8141487
8	0xbf98a09d	-1.1924015
9	0x3e24acf5	0.16081603
10	0xbf9746d5	-1.1818491
11	0xbfb48e0d	-1.410585
12	0xc0599693	-3.3998153
13	0xbf6eb1c0	-0.93239975
14	0xc0101e83	-2.2518623
15	0xbf388902	-0.7208406
16	0xbf79847f	-0.974678
17	0xbf689c73	-0.9086372
18	0xbf2b2171	-0.668479
19	0xc01941ba	-2.3946366
20	0x3fd7b102	1.6850893
21	0xc0231739	-2.5482924
22	0xc029c054	-2.6523638
23	0xbf89b246	-1.075753
24	0xbfd284f7	-1.6446828
25	0xc02c5057	-2.6924036
26	0x402a817f	2.6641538
27	0xbf216a15	-0.63052493
28	0x3fb1a539	1.3878547
29	0xc01c6073	-2.4433868
30	0xc00a076a	-2.1567025
31	0xbfd1879f	-1.6369513

running_mean f4 [32]
0	0x3ed2df7e	0.41186136
1	0x3d67041d	0.056400407
2	0x3e8643da	0.26223642
3	0x3d1e48d2	0.038643666
4	0xbf4a550b	-0.79036015
5	0xbcb6eff0	-0.022331208
6	0x3c816d18	0.01579909
7	0xbd04f5e2	-0.032461055
8	0xbe0ab037	-0.13543783
9	0xbe23c339	-0.1599244
10	0xbe90bf2f	-0.28270862
11	0xbc554e70	-0.013019189
12	0xbd688494	-0.05676706
13	0x3e8bce60	0.2730589
14	0x3f01e33c	0.5073736
15	0xbe577c96	-0.2104362
16	0xbe88c8ac	-0.267156
17	0xbe85e2a7	-0.26149485
18	0xbe05993e	-0.13046739
19	0x3d198546	0.037480615
20	0x3d331410	0.043720305
21	0x3ec70d6a	0.38877422
22	0x3d652516	0.05594357
23	0x3e84943a	0.25894338
24	0xbe498be5	-0.19682272
25	0x3d35007e	0.044189923
26	0x3d3a24de	0.045445316
27	0xbe1dc2c6	-0.15406331
28	0xbbec96fc	-0.007220147
29	0xbe503e71	-0.2033632
30	0x3d73dffb	0.059539776
31	0x3be0334e	0.0068420535

running_var f4 [32]
0	0x420e914c	35.64189
1	0x4034d04a	2.825213
2	0x415f7bbf	13.967711
3	0x41622c23	14.135776
4	0x42eae133	117.43984
5	0x407c2683	3.9398506
6	0x413e8ece	11.909864
7	0x411134de	9.075407
8	0x406f01c4	3.7344828
9	0x415e015d	13.875333
10	0x41780efb	15.503657
11	0x3fcf36a1	1.6188546
12	0x40c04878	6.0088463
13	0x4175dd1e	15.366484
14	0x42415557	48.33334
15	0x4106242c	8.383831
16	0x4172ed80	15.182983
17	0x414c7646	12.778875
18	0x4052ce7e	3.2938533
19	0x41237c3b	10.21783
20	0x4128e3d8	10.555626
21	0x420dcc97	35.449795
22	0x4123447f	10.204223
23	0x414d258e	12.821669
24	0x410e1b37	8.881644
25	0x40a2f9f6	5.093013
26	0x402a9578	2.6653728
27	0x408f137c	4.4711285
28	0x40e3c1ce	7.117408
29	0x414118f4	12.068592
30	0x40edd0d5	7.431742
31	0x3f7e9a58	0.9945426

weight f4 [32, 32, 3, 3]
0	0xbe9c930a	-0.30580932
1	0xc0507688	-3.2572346
2	0xbfbd22a6	-1.4776199
3	0x3ee9494a	0.45563728
4	0xc0069d27	-2.1033418
5	0xc02c802f	-2.6953237
6	0x40556a3f	3.3346097
7	0x3f7e9f2c	0.99461627
8	0x40138c36	2.3054328
9	0x4017d150	2.3721504
10	0x3e271ac5	0.16318806
11	0xbe29f742	-0.16598228
12	0xbf9ade53	-1.2099098
13	0x3fab99ef	1.3406352
14	0xc003260c	-2.0491972
15	0x3f6cca29	0.9249597
16	0x3fceabb5	1.6146151
17	0xc0556402	-3.334229
18	0xbc8927b4	-0.016742565
19	0xbc252f17	-0.010082028
20	0x3d2e35aa	0.042531647
21	0x3d89b17b	0.06723305
22	0x3d470e62	0.0485977
23	0x3dbcf553	0.092264794
24	0xbcf7477c	-0.030185454
25	0x3d9f3f4a	0.07775743
26	0x3cf65b32	0.030072782
27	0xbe014e29	-0.12627472
28	0x3eba8a5f	0.36433694
29	0x3f9f02b6	1.2422702
30	0x3e10c519	0.14137687
31	0x3f7cf01b	0.9880387
32	0x3fa63185	1.2983862
33	0x40a81764	5.2528553
34	0x40adb403	5.428224
35	0x3ee13bc8	0.43990922
36	0xbfa4f8bc	-1.2888408
37	0xbeb39455	-0.35074106
38	0xbf264767	-0.649527
39	0xbfc6e562	-1.5538752
40	0x3cce2e9c	0.02516871
41	0xbdccdcd7	-0.10003059
42	0xbeb448d1	-0.35211805
43	0x3fb6adc7	1.4271783
44	0x40061a21	2.0953448
45	0xbe45d331	-0.19318844
46	0x3e98eed3	0.29869708
47	0x3ed309f3	0.41218528
48	0xbf92451f	-1.1427344
49	0xbeb712ba	-0.35756475
50	0xbe1e291a	-0.15445367
51	0xbe160ba6	-0.14652881
52	0x3f6fd933	0.93690795
53	0x3eea2706	0.45732898
54	0x3fbda393	1.4815544
55	0xc009a0e2	-2.1504445
56	0xc036fbb4	-2.8591127
57	0x3f0f8c4b	0.56073445
58	0x3f4c97fb	0.79919404
59	0xbe8676a5	-0.26262394
60	0xc0214830	-2.520031
61	0xbff8090a	-1.9377759
62	0xc025b7ba	-2.5893388
63	0xc02aa65a	-2.6664033
64	0x406cf032	3.7021604
65	0x406d8512	3.711247
66	0xbfff0711	-1.9924031
67	0x3fed7a3b	1.8552927
68	0x3fbac6f8	1.459197
69	0xc0a1dfe3	-5.05858
70	0x3f49afa0	0.7878361
71	0x3fb21dcb	1.3915342
72	0xbf97e961	-1.1868097
73	0xbf246491	-0.6421595
74	0x3e479751	0.19491316
75	0xbf456062	-0.77100194
76	0xbf09f3bf	-0.5388755
77	0xbe772882	-0.24136546
78	0xbeb2b1a0	-0.34901142
79	0xbe568061	-0.2094741
80	0xbf885d60	-1.0653496
81	0xbfa0de42	-1.2567828
82	0xbf1b94bd	-0.6077383
83	0xbf8aee2f	-1.0853938
84	0x3e9197c8	0.28436112
85	0x3f7189ba	0.9435078
86	0xbfabfe43	-1.343697
87	0xbf914d62	-1.135174
88	0x3f92c6e4	1.1466947
89	0x3f851431	1.0396787
90	0xbe6afefd	-0.22948833
91	0xbcd747f9	-0.026279436
92	0x3eb28692	0.34868294
93	0x3b6e2bc2	0.0036342
94	0x3ee76dce	0.45200962
95	0x3f304e19	0.6886917
96	0x3d8ec9a5	0.069720544
97	0x3e594aa1	0.21219875
98	0x3e7d286f	0.24722455
99	0x40035b63	2.0524528
100	0x400071e1	2.0069506
101	0xc023719c	-2.5538092
102	0xc0067693	-2.1009872
103	0xbfdb4c54	-1.7132668
104	0xbe192c22	-0.14958242
105	0xbeb4602a	-0.35229617
106	0xbff3f963	-1.9060482
107	0xbf2d9c78	-0.6781688
108	0x409bab7d	4.8646836
109	0x3f9f1843	1.2429279
110	0x3ef002d7	0.46877167
111	0x3f69eccd	0.91376954
112	0x3cb1339e	0.021631058
113	0xbe99cbd9	-0.30038336
114	0xc04eafc2	-3.2294774
115	0xc08db05c	-4.4277782
116	0xbfcefdec	-1.6171241
117	0x3cb7d64e	0.022441056
118	0x3e0a5114	0.13507491
119	0x3d8f784c	0.07005367
120	0x3daa7140	0.08322382
121	0x3dd8fab5	0.105946936
122	0x3e082b5d	0.13297792
123	0x3d47fec6	0.048826955
124	0x3cb67ef8	0.02227734
125	0x3db8a18e	0.09015189
126	0x4010c42b	2.2619731
127	0x401cdbad	2.450908
128	0x3f6e1dd0	0.9301424
129	0x3f70489e	0.93860805
130	0x3d09e065	0.033661265
131	0xbf8cb1b3	-1.099173
132	0xbf8975ba	-1.0739052
133	0xbf7234f5	-0.94612056
134	0xbc92f05c	-0.017936878
135	0xbd89c60c	-0.067272276
136	0x3dccaf76	0.09994404
137	0x3e50e058	0.2039808
138	0x3d1cb4ca	0.03825835
139	0x3e886647	0.2664053
140	0x3ea988b4	0.3311211
141	0xbc670c80	-0.014102101
142	0x3d5138c5	0.05107953
143	0x3dfcfda1	0.123530634
144	0xbe6f9aa7	-0.23398839
145	0xbf1f06dd	-0.6211985
146	0xbf303db9	-0.6884418
147	0xbdcb841c	-0.09937307
148	0xbe2e3d7f	-0.17015646
149	0x3c75f970	0.015013084
150	0xbeb5cff1	-0.3551021
151	0xbe87117f	-0.26380536
152	0xbe059de6	-0.13048515
153	0xbe67a2a5	-0.22620638
154	0xbdf4e9de	-0.11958669
155	0xbd8a461c	-0.067516536
156	0xbe92537d	-0.28579322
157	0xbe0088b7	-0.12552153
158	0x3db8ca86	0.09023003
159	0xbd3c06f6	-0.045905076
160	0x3dc4f247	0.09616523
161	0x3ddad6f4	0.1068553
162	0xbdd5d382	-0.104407325
163	0xbd846887	-0.064652495
164	0x3dcf2322	0.10114123
165	0xbc30c8b9	-0.0107900435
166	0x3c2832e5	0.01026604
167	0x3db66f20	0.08907914
168	0x3bb2f328	0.0054611154
169	0x3dcdd4cb	0.10050353
170	0x3cc53409	0.024072664
171	0x3f08ddd0	0.5346346
172	0xc05425f8	-3.3148174
173	0xc011a7de	-2.2758708
174	0xc00a76ea	-2.163508
175	0xbf8af220	-1.0855141
176	0x4000d224	2.012826
177	0xbe774b4d	-0.24149819
178	0xbf057594	-0.52132535
179	0xc035c29e	-2.8400035
180	0xc0a50573	-5.156915
181	0xc07d5f5a	-3.9589448
182	0xc06f57a1	-3.7397234
183	0xbed66ee1	-0.4188147
184	0x3f9622d4	1.1729379
185	0xc01b81ea	-2.4298043
186	0x4011f398	2.2804928
187	0x408001d9	4.0002255
188	0x3e54342b	0.20723026
189	0x3f97480e	1.1818864
190	0xbfc8a6f4	-1.567595
191	0xc05f91d2	-3.4932752
192	0xbffbdf2c	-1.9677482
193	0xc028c1e6	-2.6368346
194	0xbf9346f2	-1.1506026
195	0x403b1132	2.9229245
196	0x3f656fcc	0.89623713
197	0xbfdff9c0	-1.7498093
198	0xbf8a8c9d	-1.0824162
199	0x401a0c64	2.4070063
200	0x4026de48	2.607317
201	0xbf912a48	-1.1341028
202	0xbf33c556	-0.70222986
203	0x3ecedaaa	0.40401202
204	0xbf9c898a	-1.2229474
205	0x3f187fe8	0.5957017
206	0xc04dbcfc	-3.2146597
207	0x3f08263c	0.5318334
208	0x3f39b9d3	0.7254917
209	0x3f1c8b56	0.6115011
210	0x3f18860a	0.5957953
211	0x3f18e11e	0.597185
212	0x3eefca0a	0.4683383
213	0x3fb0f0e2	1.3823512
214	0x3f3a02fe	0.72660816
215	0x3f806f69	1.0034
216	0xbe9a55dc	-0.3014363
217	0x3f161b42	0.5863534
218	0xbe1cff77	-0.15331827
219	0xbe61c5ed	-0.22048159
220	0x3fafda43	1.3738483
221	0xbe902471	-0.28152803
222	0x3eb58d00	0.35459137
223	0x3fb39633	1.4030212
224	0xbe290e8f	-0.1650946
225	0xc050885d	-3.258323
226	0xc03ed9b3	-2.9820373
227	0xbff96570	-1.9484081
228	0xc0951cb7	-4.659755
229	0xbf8c5726	-1.0964096
230	0x3e83a6b4	0.25713122
231	0x3fb0f4b9	1.3824683
232	0x3f41c144	0.75685525
233	0xbfab352b	-1.33756
234	0xbfd291b9	-1.6450721
235	0xbedf94a6	-0.43668097
236	0x4008d88c	2.138217
237	0xbf728851	-0.9473925
238	0xbe345db0	-0.17613864
239	0x3fdb8a06	1.7151496
240	0xc04fea21	-3.248665
241	0x3f224d50	0.6339922
242	0x3f69420f	0.9111642
243	0x3d76f62e	0.06029337
244	0x3e05104e	0.12994501
245	0x3d96c9af	0.07362687
246	0xbb5a4aa1	-0.0033308642
247	0x3c921053	0.01783005
248	0x3e1ccc96	0.15312418
249	0x3d025e54	0.03182824
250	0x3d638022	0.05554212
251	0x3e159df4	0.14611036
252	0x3fcea458	1.6143904
253	0x3ea1e373	0.31618842
254	0x3ed7e603	0.42167673
255	0xbfb81e93	-1.438433

weight f4 [32]
0	0x404a0b22	3.1569295
1	0x401e5253	2.4737747
2	0x40252124	2.5801477
3	0x3fe6f138	1.8042364
4	0x40447ce2	3.0701222
5	0x40286b2f	2.631542
6	0x402ae75f	2.6703718
7	0x401e7397	2.475805
8	0x400ee243	2.23256
9	0x4015740e	2.3352084
10	0x3ffb3d21	1.962803
11	0x3ffe62af	1.9873866
12	0x4031b97b	2.7769458
13	0x401824ef	2.3772542
14	0x40404aae	3.004558
15	0x40243b9a	2.5661378
16	0x402a4150	2.6602364
17	0x4036a138	2.85359
18	0x40251a0e	2.5797153
19	0x3fa8499d	1.3147465
20	0x40253924	2.5816126
21	0x40152229	2.33021
22	0x403b8e6b	2.9305675
23	0x404b30c6	3.174852
24	0x40407b31	3.007519
25	0x4015b9fa	2.339476
26	0x404d84af	3.2112234
27	0x400776ed	2.1166337
28	0x3ff956f7	1.9479665
29	0x403edce2	2.9822316
30	0x4020c13a	2.5117936
31	0x40307901	2.7573855

bias f4 [32]
0	0xbfe0d8a0	-1.7566109
1	0xbf45db18	-0.77287436
2	0xbfdf73c3	-1.7457203
3	0x3f0b23fa	0.5435177
4	0xbfcbb196	-1.591357
5	0xc01a2974	-2.40878
6	0xc018e301	-2.3888552
7	0xc01d3aac	-2.456706
8	0xbe20be8e	-0.15697691
9	0xc00b33c9	-2.1750357
10	0x3f44d240	0.76883316
11	0xc03375fa	-2.8040757
12	0xc001b679	-2.0267622
13	0xbf98b793	-1.1931022
14	0xbfc2fe9a	-1.5233948
15	0xbf63dfd8	-0.89013433
16	0xbf3975b2	-0.72445214
17	0xc02cb559	-2.6985686
18	0xc014f933	-2.32771
19	0x3e12dec2	0.14342788
20	0xbf3f40a2	-0.74707997
21	0xbf79ff87	-0.9765553
22	0xc00a0bad	-2.1569626
23	0xc00974b3	-2.1477478
24	0xbfc53eda	-1.5409806
25	0xbfa6d6a4	-1.3034253
26	0xc014cd04	-2.3250132
27	0xbf9002d5	-1.1250864
28	0xc00f5db6	-2.2400947
29	0xbfc923ee	-1.571409
30	0xbfd22a7c	-1.6419215
31	0xc0117cb0	-2.2732353

running_mean f4 [32]
0	0xc243efc1	-48.984135
1	0xc26fbfdf	-59.937374
2	0xc269c640	-58.443604
3	0xc20e7bb1	-35.620792
4	0xc25f27ea	-55.78898
5	0xc00e5ad6	-2.2242942
6	0xc27db22d	-63.424
7	0xc1dbcfc2	-27.476444
8	0xc19ed53a	-19.854115
9	0x4146ed7f	12.432982
10	0xc181c962	-16.223331
11	0x41d8bac5	27.091196
12	0xc29210b5	-73.03263
13	0xc1ee0f3f	-29.757444
14	0xc2bee262	-95.442154
15	0xc3100758	-144.02869
16	0xc23bcc66	-46.949608
17	0xc2194624	-38.318497
18	0xc059ac71	-3.40115
19	0x411df0b0	9.871262
20	0xc28f6b89	-71.71003
21	0xc213cc1d	-36.94933
22	0xc2beb63e	-95.35594
23	0xc28e73f6	-71.22649
24	0xc24c971c	-51.147568
25	0xc27af570	-62.739685
26	0xc2a582ce	-82.75548
27	0x4028defa	2.6386094
28	0xc0006bc3	-2.0065773
29	0xc29bafc2	-77.84328
30	0xc225e43f	-41.472897
31	0xc3053417	-133.20348

running_var f4 [32]
0	0x455565e9	3414.3694
1	0x45ff41cb	8168.224
2	0x455dad52	3546.8325
3	0x458194ea	4146.6143
4	0x4553c550	3388.332
5	0x458440fc	4232.123
6	0x4542c591	3116.348
7	0x44f1655e	1931.1677
8	0x45a56fd8	5293.9805
9	0x459f7a08	5103.254
10	0x459f929d	5106.3267
11	0x45534bf3	3380.7468
12	0x453d354c	3027.331
13	0x455fd6f9	3581.4358
14	0x457c04b4	4032.294
15	0x45dbd28e	7034.3193
16	0x45bcef09	6045.8794
17	0x4584078b	4224.943
18	0x44e54420	1834.1289
19	0x459405d6	4736.7295
20	0x45a0c23b	5144.279
21	0x45761da4	3937.8525
22	0x4554f4df	3407.3044
23	0x456d5734	3797.4502
24	0x4551abcd	3354.7375
25	0x459c8db8	5009.715
26	0x45888747	4368.9097
27	0x458ac70a	4440.88
28	0x4571af49	3866.9553
29	0x4598264a	4868.786
30	0x45c3d2f9	6266.3716
31	0x4546ef79	3182.967

weight f4 [64, 32, 3, 3]
0	0x40301593	2.7513168
1	0x3f6667a4	0.90001893
2	0x409199f9	4.5500455
3	0x3ff5e05b	1.9209093
4	0xbf8dd9cc	-1.1082091
5	0x3e0409bf	0.12894343
6	0xc03a73fb	-2.913329
7	0xc01333a0	-2.300026
8	0x40127b7c	2.288787
9	0xbf195b56	-0.5990499
10	0x4043c711	3.059025
11	0xc06107b1	-3.5160944
12	0x40525f03	3.287049
13	0x3f11d2fa	0.5696255
14	0x3e6309f4	0.22171766
15	0xbe3844d8	-0.17995012
16	0xbfbc1af3	-1.4695724
17	0x406950e9	3.6455634
18	0xbf9f5f7a	-1.2451012
19	0xc040d4a2	-3.012978
20	0xc1111348	-9.067207
21	0x3f07592c	0.5287044
22	0x3d29d7b2	0.04146547
23	0x3ea262c5	0.3171598
24	0xc0a4bee5	-5.1483026
25	0x3eedcff2	0.46447712
26	0x3fa616ca	1.2975705
27	0x3f917930	1.1365108
28	0xbd43d1c7	-0.04780748
29	0x40053886	2.081575
30	0xbef1faac	-0.4726156
31	0xbfce3d49	-1.6112453
32	0x3f3f1c8c	0.74652934
33	0x3ec5d238	0.38636947
34	0xbf7175c3	-0.94320315
35	0x4019b452	2.4016309
36	0xc030e1e3	-2.763787
37	0x3f9fe06b	1.2490362
38	0x400fcbd3	2.2468154
39	0xc0105ac8	-2.2555408
40	0x401f05dd	2.4847329
41	0x3fed9c60	1.8563347
42	0xbf55fff0	-0.83593655
43	0x3f4ecbab	0.8077952
44	0x3ea13288	0.31483865
45	0xc03873ee	-2.8820758
46	0x400d7e64	2.2108393
47	0xbef60efb	-0.48058304
48	0x3f6d4953	0.9269001
49	0x3f55032b	0.8320796
50	0xbf80c933	-1.0061401
51	0x3ebb5b12	0.3659292
52	0x3fa4b9ad	1.2869164
53	0x3e94b0b0	0.29041052
54	0xbfac8454	-1.3477883
55	0x3f027d31	0.50972277
56	0xc04c4895	-3.19193
57	0xc0469aa4	-3.1031885
58	0x400455e1	2.0677416
59	0xbe4236c3	-0.18966202
60	0xc068aaa1	-3.6354144
61	0x3ff03a44	1.8767781
62	0x4040182f	3.001476
63	0x3f89c748	1.0763941
64	0xc031e60e	-2.7796664
65	0xc0617e1f	-3.5233228
66	0xc0975d21	-4.7301183
67	0x3f88795c	1.0662036
68	0x3f2a764e	0.6658677
69	0xc01bd11f	-2.4346387
70	0xbeffc25f	-0.4995298
71	0x3fca1c62	1.5789912
72	0x3fcdfa14	1.6091943
73	0x3f438005	0.7636722
74	0x3fb6acae	1.4271448
75	0x4024fb93	2.5778549
76	0xc07caba1	-3.9479754
77	0x3f06e37c	0.52690864
78	0xc0904c23	-4.509294
79	0xbe58f537	-0.21187292
80	0xbe47ac53	-0.1949933
81	0xc0c1f797	-6.0614734
82	0xbec62b8f	-0.38705108
83	0x3f8f9205	1.1216437
84	0xbfb41fb6	-1.4072177
85	0x3f4fbd96	0.8114866
86	0xc08c7248	-4.3889503
87	0xbf33dde6	-0.70260465
88	0xbfc7c3fe	-1.5606687
89	0xc033ffa6	-2.8124785
90	0xbfc0aaaa	-1.5052083
91	0xbe8a9767	-0.27068636
92	0xc02d322d	-2.7061875
93	0xc02fba5e	-2.74575
94	0x3feb068e	1.8361375
95	0xbfc95419	-1.572879
96	0x3ec3730c	0.3817371
97	0x3fb2fe55	1.3983866
98	0x3e8d4533	0.27591857
99	0xc0bac195	-5.8361306
100	0x3f1cbf81	0.6122971
101	0x3fec7ff7	1.8476552
102	0x3deba579	0.11506171
103	0xc0259396	-2.587133
104	0xc0428a91	-3.0397074
105	0xbfb45b04	-1.4090276
106	0xc01df731	-2.4682124
107	0xc01b0c08	-2.4226093
108	0xc0284761	-2.6293566
109	0xbe42e22b	-0.19031589
110	0x3fbae738	1.4601812
111	0x3fc266a2	1.5187571
112	0xc05336eb	-3.300227
113	0x40813299	4.0374265
114	0x3fa4ee05	1.2885138
115	0x3d358663	0.044317614
116	0x40117fec	2.2734327
117	0xc00febbd	-2.2487633
118	0xbfaa0363	-1.3282284
119	0xbf6caf0a	-0.9245459
120	0x3ea12267	0.3147156
121	0xc01a7339	-2.4132826
122	0x3ffaba76	1.9588153
123	0xc0368bf6	-2.8522925
124	0x3facfc0a	1.3514416
125	0x401694cf	2.3528326
126	0x3e170d6e	0.14751217
127	0x3ee570fc	0.44812763
128	0xbf085030	-0.53247356
129	0xbf95e12d	-1.1709343
130	0xbefe88b4	-0.4971367
131	0x3f0f9e17	0.561006
132	0xc0b98499	-5.797436
133	0xc00f7acb	-2.2418697
134	0xbed9f450	-0.42569208
135	0xc013e534	-2.3108644
136	0x3ca5e7c3	0.020252114
137	0xbf61cdf3	-0.8820488
138	0x3e99a6b3	0.30009994
139	0xbee8c32d	-0.45461407
140	0xbf2ef4b2	-0.68342125
141	0xbe8aeef1	-0.27135423
142	0xbfcdf84f	-1.6091403
143	0xc063087d	-3.547393
144	0x3f935553	1.1510414
145	0x401d374f	2.4565008
146	0x3fe6c70a	1.8029492
147	0x4086612d	4.1993623
148	0x3f4984a7	0.78718036
149	0xbf23f56d	-0.64046365
150	0xbf2e6022	-0.6811544
151	0xbf10a705	-0.5650485
152	0xbea348bc	-0.3189143
153	0xbf18df85	-0.59716064
154	0xc0074b7c	-2.1139822
155	0xc015660c	-2.3343534
156	0xc045cb69	-3.0905402
157	0xc041691b	-3.0220401
158	0xc10399da	-8.225061
159	0x3df60810	0.120132565
160	0xbffbabba	-1.9661782
161	0x3fb3fe18	1.4061918
162	0x3f8de496	1.1085384
163	0xbf7375a1	-0.9510136
164	0xbf863ea4	-1.0487866
165	0x40053453	2.0813186
166	0x3dd83f6d	0.105589725
167	0xbfb49f45	-1.4111105
168	0xc05d1d31	-3.4549067
169	0xc03ccf60	-2.9501572
170	0xbee65bcd	-0.44991913
171	0x40036724	2.0531702
172	0x3f9c563b	1.2213815
173	0xc04b625e	-3.1778789
174	0x3e8fde65	0.2809936
175	0xc011d798	-2.2787838
176	0xbfabde57	-1.3427228
177	0xc05ffe6d	-3.499904
178	0xbe5fa905	-0.2184182
179	0xbf160591	-0.58602244
180	0x3f152d03	0.5827181
181	0xbf127366	-0.57207334
182	0x400c1648	2.18886
183	0x3efb9981	0.49140552
184	0xbfdb2e15	-1.7123438
185	0xbd8d5ed7	-0.06902855
186	0xbf0a5bc7	-0.5404629
187	0xbf86e938	-1.0539923
188	0xbff1b3dd	-1.8883015
189	0x407b6670	3.9281273
190	0x3fee950a	1.8639233
191	0xbfdbea2b	-1.7180837
192	0xc068adf2	-3.6356168
193	0xc05b5d0f	-3.4275548
194	0x403c38d4	2.9409685
195	0x3fc8c1e4	1.5684171
196	0xbfc48f5b	-1.5356249
197	0x3fcbb44d	1.5914398
198	0xbf98090a	-1.1877759
199	0xbe96a031	-0.2941909
200	0xbf9c57d2	-1.2214301
201	0xbf76e8b0	-0.964488
202	0xc0cd01d9	-6.4064755
203	0x3f782924	0.96937776
204	0xbf677b9d	-0.90422994
205	0xc03c7673	-2.9447296
206	0x3fbd7f9c	1.4804568
207	0x3f3006a5	0.6876014
208	0x4006a3fc	2.1037588
209	0xc09457f0	-4.6357346
210	0x3f7136b1	0.9422408
211	0xc03b4dbb	-2.9266193
212	0x403ecd93	2.9812973
213	0xc023e185	-2.5606396
214	0x3e88ef90	0.26745272
215	0x3f78ff44	0.97264504
216	0xbd1e767e	-0.03868722
217	0x3f1cc65c	0.6124017
218	0xbef55c8c	-0.4792217
219	0xc02f9c3f	-2.7439115
220	0xc07254b6	-3.7864203
221	0x3eb9debf	0.36302754
222	0xbda44229	-0.080204315
223	0xc0849ae4	-4.1439075
224	0x40169b5d	2.3532326
225	0xbf2faa55	-0.6861928
226	0x3f9966a0	1.1984444
227	0xbf5cd88c	-0.86267924
228	0xbfff5200	-1.99469
229	0xc016ea09	-2.3580344
230	0xbf5cb008	-0.862061
231	0x4029ceda	2.6532502
232	0x3fbf47cd	1.4943787
233	0x3f9b6c45	1.2142416
234	0x3fab0061	1.3359491
235	0x400e13fe	2.2199702
236	0xbf747b44	-0.9550059
237	0x3eadf2cb	0.339743
238	0xbfa72be1	-1.3060266
239	0x3ed770e8	0.42078328
240	0xbfb678e8	-1.4255648
241	0x40531b35	3.2985356
242	0x3e931310	0.2872548
243	0x3f8661b7	1.049857
244	0x40420b62	3.0319448
245	0xbc1a36a1	-0.009412439
246	0x401a45e7	2.4105165
247	0xbfc03ceb	-1.5018591
248	0x3e18fee5	0.14940985
249	0x3f2a288a	0.6646811
250	0xbf84251e	-1.0323827
251	0x3f95052c	1.1642203
252	0x3f2763e6	0.6538681
253	0x3fb0b315	1.3804651
254	0xc0136590	-2.303074
255	0x4011930b	2.2745998

weight f4 [64]
0	0x4023ad07	2.5574358
1	0x4022172f	2.532665
2	0x3fa1d542	1.2643206
3	0x4022ea5a	2.5455537
4	0x402dd67a	2.7162156
5	0x3ff226cb	1.8918089
6	0x403a9560	2.9153671
7	0x4010044e	2.2502627
8	0x401c8df5	2.4461644
9	0x4021b412	2.5266156
10	0x40247a69	2.5699713
11	0x402475ae	2.5696826
12	0x401d403b	2.4570453
13	0x3fe67c50	1.8006687
14	0x402175bb	2.5228107
15	0x401c5e7c	2.4432669
16	0x402cf02c	2.702159
17	0x4019bb0d	2.4020417
18	0x402a8fc2	2.6650243
19	0x40195a52	2.3961377
20	0x40245965	2.5679562
21	0x401d311b	2.4561222
22	0x3fde59cd	1.7371155
23	0x40260f26	2.5946746
24	0x401ac564	2.4182978
25	0x400ba7cd	2.1821167
26	0x4024bdce	2.5740848
27	0x3fe3b2c9	1.7788936
28	0x40174e94	2.364171
29	0x40117f19	2.2733824
30	0x402b8b50	2.680378
31	0x4031ed37	2.7801034
32	0x400905e0	2.1409836
33	0x400fc2d9	2.2462676
34	0x40253f40	2.5819855
35	0x40065c3d	2.0993798
36	0x40043b80	2.0661316
37	0x4006a9f0	2.1041222
38	0x400f2640	2.2367096
39	0x402719ba	2.6109452
40	0x400ba212	2.181767
41	0x3fd85bf2	1.690306
42	0x400dc7dd	2.2153237
43	0x3feb7d38	1.8397589
44	0x4030d1c4	2.762803
45	0x3ffb3632	1.9625914
46	0x40254659	2.5824187
47	0x402283b4	2.5392885
48	0x3ff3b8db	1.9040788
49	0x4013646c	2.3030043
50	0x4022bd22	2.5427938
51	0x40253650	2.58144
52	0x401041cc	2.254016
53	0x40166b64	2.3503046
54	0x3ff70f9a	1.9301636
55	0x400468cf	2.068897
56	0x401bd16e	2.4346576
57	0x4013c44e	2.3088565
58	0x3fb14afb	1.3851007
59	0x401bcc07	2.4343278
60	0x4025234a	2.5802789
61	0x40335fa6	2.802713
62	0x400d73ea	2.2101998
63	0x401c5de6	2.443231

bias f4 [64]
0	0xbff645d8	-1.9240065
1	0xbf8b2527	-1.0870713
2	0xbe94b780	-0.2904625
3	0xbfd5c833	-1.6701721
4	0xc003b987	-2.0581987
5	0xbfdae1c0	-1.7100143
6	0xc052bef8	-3.2929058
7	0xbfe77a55	-1.8084208
8	0xc02c2ebe	-2.690353
9	0xc0171b4b	-2.3610408
10	0xbfe7cc69	-1.8109256
11	0xc00e7130	-2.2256584
12	0xbff3dca5	-1.905171
13	0xbe04a51d	-0.1295361
14	0xc0038361	-2.0548937
15	0xc0278234	-2.617322
16	0xc02ad609	-2.6693137
17	0xbfbbab31	-1.4661618
18	0xc0293603	-2.6439216
19	0xc02c0a10	-2.6881142
20	0xc027696f	-2.6158102
21	0xc02bb97d	-2.6831963
22	0xbee48184	-0.44630063
23	0xc027622c	-2.615367
24	0xbfdc9f0e	-1.723604
25	0xbfc038a7	-1.5017289
26	0xbf8ceaf8	-1.1009207
27	0xbf95b146	-1.1694725
28	0xbfe44e49	-1.7836391
29	0xbfc608e8	-1.5471468
30	0xc038b102	-2.8858037
31	0xc03d5b3b	-2.9586933
32	0xbff7e3e9	-1.9366428
33	0xbfa1c092	-1.2636893
34	0xc02bcf93	-2.6845443
35	0xbfc619ef	-1.5476664
36	0xbf9de69d	-1.2336003
37	0xbff3dbb3	-1.9051422
38	0xbfd0ec8c	-1.6322188
39	0xbfc23df3	-1.5175155
40	0xbff40f34	-1.906714
41	0xbff3c4ac	-1.9044394
42	0xbffaa772	-1.958235
43	0xbfa10c1b	-1.2581819
44	0xc0159532	-2.3372312
45	0xbf665ea9	-0.8998819
46	0xc0128505	-2.2893689
47	0xc02af8ed	-2.6714432
48	0xbfb0fd8a	-1.3827374
49	0xbfec9bfa	-1.84851
50	0xc00caf76	-2.1982093
51	0xbf9985e2	-1.1993983
52	0xbfda5cb9	-1.7059547
53	0xc03450c4	-2.8174295
54	0xbf9c0ada	-1.2190812
55	0xc001cb97	-2.0280511
56	0xbff3eca5	-1.9056593
57	0xbfe4016b	-1.7812933
58	0xbf2a3cb1	-0.6649886
59	0xc01453c1	-2.317612
60	0xc00bf902	-2.1870732
61	0xbf9323fe	-1.1495359
62	0xbfd8d097	-1.6938657
63	0xc00aabe4	-2.1667414

running_mean f4 [64]
0	0xc2346530	-45.098816
1	0xc2774731	-61.819523
2	0xc20e65d0	-35.599426
3	0xc24fca8b	-51.947796
4	0xc20ef35e	-35.737663
5	0x420d9fc2	35.406013
6	0xc2992926	-76.58037
7	0xc1c2d391	-24.353304
8	0xc177139d	-15.442288
9	0x4122d569	10.177102
10	0xc255b5c7	-53.427517
11	0xc27c1996	-63.024986
12	0xc20f61b3	-35.84541
13	0xc19a6c5f	-19.302916
14	0xc2269b7b	-41.651836
15	0xc254b112	-53.17292
16	0xc1e4357b	-28.526114
17	0xc22bf694	-42.9908
18	0xc22f6cce	-43.856255
19	0xc2496882	-50.35206
20	0xc24db372	-51.42524
21	0xc22b9f1d	-42.905384
22	0xc2845f84	-66.186554
23	0xc26b6918	-58.85263
24	0xc2baf35d	-93.47532
25	0xc1c38a26	-24.442455
26	0xc1f6109a	-30.758106
27	0xc1fafdf8	-31.374008
28	0xc29d9acb	-78.80233
29	0xc281fc25	-64.99247
30	0xc23521ce	-45.283012
31	0xc2359b19	-45.401463
32	0xc0a33ab6	-5.100917
33	0xc1dc6021	-27.546938
34	0xc1d01013	-26.007849
35	0xc188b4ea	-17.088337
36	0xc21ddb58	-39.464203
37	0xc0b59128	-5.6739693
38	0xc2a3ee28	-81.96515
39	0xc2070352	-33.753242
40	0xc210db8e	-36.21441
41	0x41cfab88	25.958755
42	0xc27edcdb	-63.71568
43	0xbfaf7618	-1.3707914
44	0xc273b5ce	-60.927544
45	0xc216340b	-37.550823
46	0xc2aa2beb	-85.08578
47	0xc20f9d55	-35.903645
48	0xc10f52c9	-8.957711
49	0xc22e0c18	-43.51181
50	0xc1f3732d	-30.431238
51	0xc1cebb8f	-25.841581
52	0xc223054c	-40.755173
53	0xc1da962f	-27.323332
54	0x4148acda	12.5422
55	0xc1f59750	-30.698883
56	0xc24aa313	-50.659252
57	0xc2486ade	-50.104362
58	0x41978ad7	18.942793
59	0xc236e1dc	-45.720566
60	0xc2adebaf	-86.96032
61	0xc21d7e76	-39.373497
62	0xc28da50a	-70.82234
63	0xc2b57400	-90.72656

running_var f4 [64]
0	0x45091bd6	2193.7397
1	0x4563b1a6	3643.103
2	0x4502879b	2088.4753
3	0x452423cc	2626.2373
4	0x4506d560	2157.336
5	0x44f2dd94	1942.9243
6	0x45208222	2568.1333
7	0x44dded8c	1775.4233
8	0x4506ecae	2158.7925
9	0x44ce32a3	1649.5824
10	0x450b2821	2226.508
11	0x4511542c	2325.2607
12	0x450ce8ed	2254.5579
13	0x44f2852e	1940.1619
14	0x4517c309	2428.1897
15	0x44d861d5	1731.0573
16	0x44f8e57f	1991.1718
17	0x45213544	2579.329
18	0x451281ab	2344.1042
19	0x44fcd21d	2022.566
20	0x44e13423	1801.6293
21	0x44f0f54b	1927.6654
22	0x4556a76c	3434.4639
23	0x44e31062	1816.512
24	0x4525b63f	2651.3904
25	0x4526d705	2669.4387
26	0x451477c9	2375.4866
27	0x44b2301c	1425.5034
28	0x453e9b36	3049.7007
29	0x44fe7c25	2035.8795
30	0x44ed23ec	1897.1226
31	0x450163c1	2070.2346
32	0x44d744f1	1722.1544
33	0x4529f9e2	2719.6177
34	0x44e21a05	1808.8131
35	0x4504b977	2123.5916
36	0x45547707	3399.4392
37	0x44bb8ccc	1500.3999
38	0x45202b84	2562.7197
39	0x452428c2	2626.5474
40	0x450edd4c	2285.831
41	0x450a91e2	2217.1177
42	0x45511b46	3345.7046
43	0x44d8c1fa	1734.0618
44	0x44fa3add	2001.8395
45	0x450322cb	2098.1746
46	0x4513a244	2362.1416
47	0x44e4bcb5	1829.8971
48	0x44d7ed3f	1727.414
49	0x4546c76e	3180.4644
50	0x45339221	2873.133
51	0x454e2378	3298.2168
52	0x4509ddc3	2205.86
53	0x44dc08df	1760.2772
54	0x44ba166e	1488.7009
55	0x44f28e0b	1940.4388
56	0x44ebb086	1885.5164
57	0x4508b2da	2187.1782
58	0x450293a5	2089.2278
59	0x4505631e	2134.1948
60	0x454d573a	3285.4517
61	0x451cc717	2508.443
62	0x4506db36	2157.7007
63	0x45256bd2	2646.7388

weight f4 [64, 64, 3, 3]
0	0x409f1668	4.971485
1	0xbf291ccb	-0.6605956
2	0xc005d6cc	-2.0912352
3	0xbfdad336	-1.7095706
4	0xc0980822	-4.750993
5	0xbe66d3e7	-0.22541772
6	0x3d84bab7	0.064809255
7	0xbf225f84	-0.63426995
8	0x3d0f9aa3	0.035059582
9	0x4044132c	3.0636702
10	0x3f9cf680	1.2262726
11	0x4031a955	2.7759602
12	0x402b7215	2.678838
13	0xc0b9d2b6	-5.8069715
14	0xc0cd1d86	-6.409854
15	0x3f99f3c2	1.2027514
16	0xbf4486e2	-0.76768315
17	0x3eab0efb	0.33409867
18	0x3edd982b	0.43280157
19	0xbe55563a	-0.20833674
20	0xbed1a60c	-0.40946996
21	0x3f897c0d	1.0740982
22	0xbe727156	-0.23676047
23	0x3fd702d8	1.6797743
24	0xbfedf632	-1.8590758
25	0xc016a624	-2.3538904
26	0x3f94366e	1.1579111
27	0x400a5794	2.1615953
28	0x3f32c9b0	0.69839
29	0xc05cda16	-3.450811
30	0xbf8dc16b	-1.1074651
31	0xbf4830fb	-0.7819974
32	0x3fc27598	1.5192137
33	0x3ec3022f	0.38087603
34	0x3f9b2e9e	1.2123601
35	0x4014f398	2.3273678
36	0x3fe2d11f	1.7720069
37	0xbf3656bc	-0.71226096
38	0xbfab48f1	-1.3381635
39	0xc0136bcd	-2.3034546
40	0xbf4eabf8	-0.80731153
41	0x3ff65607	1.9245003
42	0x40589585	3.384126
43	0xbf91a34d	-1.137796
44	0x3ff9ce46	1.9516075
45	0x3f6cf5ad	0.9256237
46	0x3f1a7665	0.60336906
47	0x3fbfc20a	1.4981091
48	0x3ef8edcb	0.48618922
49	0x40272fae	2.6122851
50	0x3e471979	0.19443311
51	0x3f522f56	0.8210348
52	0x3f9dae50	1.2318821
53	0xc07fcfe1	-3.997063
54	0xbf68fdce	-0.91012275
55	0x3f64d17c	0.8938215
56	0xbff8e0a4	-1.9443555
57	0x40491c17	3.1423395
58	0xc045c607	-3.0902116
59	0x3cd9a5fb	0.026568403
60	0x403759c6	2.8648543
61	0xbf9df285	-1.2339636
62	0xbed2419c	-0.4106568
63	0xc0313304	-2.7687387
64	0xbff066d6	-1.8781383
65	0x3c312d79	0.010814064
66	0x3f511589	0.81673485
67	0xc00f0c8e	-2.2351413
68	0xc03ca15b	-2.9473484
69	0x3fabd369	1.3423892
70	0x400eabd3	2.2292373
71	0xbfde8749	-1.7385036
72	0xc0077827	-2.1167085
73	0x3d03dcb7	0.032192912
74	0xbfd9369a	-1.6969788
75	0xbfea8540	-1.8321915
76	0xbf37b8c3	-0.717663
77	0x3f569c2e	0.8383206
78	0xc038fb1b	-2.8903263
79	0xbf2f87a4	-0.68566346
80	0xc01d5f31	-2.458935
81	0x3e69ff10	0.22851205
82	0xbf3afb5c	-0.73039794
83	0xbf7b7727	-0.9822869
84	0x3fd3f782	1.6559908
85	0xc013737d	-2.3039238
86	0xbfa31e14	-1.2743554
87	0x3ff7ef56	1.9369915
88	0x3f2e8174	0.6816628
89	0x40469a77	3.1031778
90	0x4075b294	3.8390245
91	0x3f4430e1	0.76637083
92	0xbe4cc494	-0.19996864
93	0x3fba163f	1.4538039
94	0x3fd2d8b5	1.6472384
95	0x3fbd19ed	1.4773537
96	0x3df93cc5	0.12169794
97	0x402b1129	2.6729224
98	0xc04754ac	-3.114543
99	0xbeb189c0	-0.34675407
100	0xbcc3cada	-0.023900438
101	0x3f76880f	0.9630136
102	0x3fdd7f45	1.7304465
103	0xc0c0ddb5	-6.027064
104	0xc04030cf	-3.002979
105	0xbf5705c3	-0.83993167
106	0xc03ff1b8	-2.9991283
107	0x3e79eb7f	0.24406241
108	0xbfc32c87	-1.5247964
109	0xc06eb3b0	-3.7297173
110	0x4011ab50	2.276081
111	0x4000f073	2.0146759
112	0xbf4a4dda	-0.7902504
113	0x40357870	2.835476
114	0x403443f5	2.8166478
115	0x3fb9fd0f	1.4530352
116	0xbe8191f6	-0.25306672
117	0x402510d0	2.5791512
118	0xbda7f019	-0.08200092
119	0xbf7496ee	-0.955428
120	0xc0316fbf	-2.7724454
121	0xc0747ffa	-3.820311
122	0xbf16ca7b	-0.5890271
123	0xc0496119	-3.1465514
124	0xc022bd8e	-2.5428195
125	0xc087a0b8	-4.238369
126	0xbf12c19f	-0.5732669
127	0x3f6ebf06	0.9326023
128	0xbf7c7dc7	-0.9862942
129	0xc00b27bc	-2.1743002
130	0x4028e6c9	2.639086
131	0xbf65559b	-0.8958375
132	0x3f98085c	1.1877551
133	0x404c6083	3.1933906
134	0x3f4e68f4	0.80628896
135	0xbffeb74d	-1.9899689
136	0xbfa2557d	-1.2682339
137	0x402da5a4	2.713235
138	0x3ec98f09	0.3936694
139	0x403d0840	2.9536285
140	0x3fd50a01	1.6643678
141	0x3f820c02	1.0159914
142	0xbfac2106	-1.3447578
143	0xc08ff23e	-4.4983206
144	0x4016e287	2.3575761
145	0x3fcc27b2	1.5949614
146	0x3f921f14	1.1415734
147	0x3fa9964e	1.3248994
148	0x3fed95bc	1.856132
149	0x4011fd7c	2.2810965
150	0xc042e2ab	-3.0450847
151	0x3fe4eee6	1.7885406
152	0x3f129fa6	0.57274854
153	0xbff0b9f2	-1.8806746
154	0xbf950eb4	-1.1645112
155	0xbf8b3852	-1.0876563
156	0xc0a07b26	-5.015033
157	0xbfdd7dc1	-1.7304002
158	0xbf6179c6	-0.88076437
159	0x3e7ed2c0	0.24885082
160	0x3faec007	1.3652352
161	0xbf29eedc	-0.66380095
162	0x3f9fdaf4	1.2488694
163	0xbec511b5	-0.38490072
164	0x4067350b	3.6126125
165	0xbfbfc7f6	-1.4982898
166	0x3fc78c5e	1.5589712
167	0x404c4531	3.191723
168	0xbfbc2306	-1.4698188
169	0xc01e174e	-2.4701724
170	0xbfd3ea45	-1.6555868
171	0xc0410abe	-3.0162807
172	0x3fa30193	1.2734855
173	0x4016a8f2	2.3540616
174	0x3f5fe680	0.8746109
175	0xbf79de08	-0.9760442
176	0xbe617ae6	-0.22019538
177	0x3fa8a339	1.3174812
178	0x3f923119	1.1421233
179	0xbfdd1223	-1.727116
180	0xbf336425	-0.70074683
181	0xbdd88e3b	-0.10574003
182	0xbe91e5a1	-0.28495505
183	0x404c5bc9	3.1931021
184	0x3f93e753	1.155497
185	0x405bee11	3.4364054
186	0xbfa3d97a	-1.2800744
187	0xbf00daf5	-0.503341
188	0x3e7ceefa	0.24700537
189	0xbebed27c	-0.37269962
190	0x3ee02bb9	0.43783358
191	0x402025d6	2.5023093
192	0x3f2499e7	0.64297336
193	0xbf74adcf	-0.9557771
194	0x3fbd4832	1.4787657
195	0xbe80df27	-0.25170252
196	0xc049aeed	-3.1513016
197	0xbf7f924d	-0.9983261
198	0x3ff481f3	1.9102157
199	0x3fc4eb68	1.538434
200	0x3f696935	0.9117616
201	0x3fd9ecbb	1.702537
202	0xbf86e9be	-1.0540082
203	0xbf44fc75	-0.7694772
204	0x3fcd2e8f	1.6029834
205	0x40266ece	2.600513
206	0x405bd272	3.4347196
207	0xbfbbe6d7	-1.4679822
208	0xc01af850	-2.4214058
209	0x3ef8939f	0.48550126
210	0x3e4ac774	0.19802648
211	0x3fa5326b	1.2906011
212	0xbf7fe539	-0.9995914
213	0x40889b73	4.2689757
214	0xbde4af56	-0.11166255
215	0x40465764	3.099084
216	0x3ed08af5	0.40731016
217	0x405b4b76	3.4264808
218	0x3ff74be2	1.9320033
219	0x40223ed4	2.5350847
220	0x3f83e0f0	1.030302
221	0xbf836d01	-1.026764
222	0xc030f991	-2.7652323
223	0x3f6d7cbd	0.9276846
224	0x3f81365c	1.0094714
225	0xc05508fc	-3.3286734
226	0xbec161b0	-0.37769842
227	0xbe869893	-0.2628828
228	0x400a5691	2.1615336
229	0x3e2dfef9	0.16991796
230	0x3fc8f5f9	1.5700065
231	0x3fb91900	1.4460754
232	0x3f83a35f	1.0284232
233	0xc015db6d	-2.3415177
234	0x3fb340ed	1.4004189
235	0x3face5f1	1.3507673
236	0xbfff4f85	-1.9946142
237	0x403610ab	2.8447673
238	0x4043f678	3.0619183
239	0xbf8b0421	-1.0860635
240	0x3fcc6734	1.5968995
241	0xc014cd5e	-2.3250346
242	0xbcd3625a	-0.025803734
243	0xbf158d48	-0.58418703
244	0x402588eb	2.5864818
245	0xbf376f01	-0.71653754
246	0x3f107293	0.56424826
247	0x3db032e2	0.08603455
248	0x3e06ce8f	0.13164733
249	0xbee062d3	-0.43825397
250	0xbff61631	-1.9225522
251	0x40286789	2.6313193
252	0x3feda990	1.8567371
253	0xbfb6de8d	-1.4286667
254	0x3d26b9ff	0.040704723
255	0x3f6af8a3	0.9178564

weight f4 [64]
0	0x3f998723	1.1994365
1	0x3f7e7ae6	0.9940628
2	0x3f8bf30d	1.0933548
3	0x3f8aaf32	1.0834715
4	0x3f921e5e	1.1415517
5	0x3f94c351	1.1622106
6	0x3f954f97	1.1664914
7	0x3f66b722	0.9012319
8	0x3f893eb9	1.0722266
9	0x3f84f3ec	1.0386939
10	0x3f82258b	1.0167707
11	0x3fe056b5	1.7526461
12	0x40023b8e	2.034885
13	0x3f882378	1.0635824
14	0x3fa02f1c	1.2514377
15	0x3fc9d8c1	1.5769273
16	0x3f969192	1.1763175
17	0x3fbb55c3	1.4635547
18	0x3f8b31c4	1.0874562
19	0x3f9a60b4	1.2060761
20	0x3f8cd22f	1.1001643
21	0x3f9961ec	1.1983008
22	0x3f6b58c7	0.9193234
23	0x3fa42af8	1.2825613
24	0x3fc4d9fa	1.5379021
25	0x3f942fbb	1.1577066
26	0x3fd27358	1.644145
27	0x3fa9658b	1.3234113
28	0x3fd65fdd	1.6748005
29	0x3f836601	1.0265504
30	0x3f8646b9	1.0490333
31	0x3f66eede	0.9020823
32	0x3f830514	1.0235925
33	0x3f6890b4	0.908458
34	0x3f8ee27b	1.1162866
35	0x3f9e4a7b	1.236648
36	0x3fc63946	1.5486228
37	0x3fc9a604	1.5753789
38	0x3f867080	1.0503082
39	0x3f688f56	0.90843713
40	0x3f876d99	1.0580322
41	0x3f95a4b1	1.1690885
42	0x3f933fce	1.1503847
43	0x3f81d8a7	1.0144242
44	0x3fcd41ec	1.6035743
45	0x3f647a70	0.89249325
46	0x3fc52cd8	1.540431
47	0x3fab5553	1.3385414
48	0x3f5c319c	0.860132
49	0x3f96a33b	1.1768564
50	0x3f8a6206	1.0811164
51	0x3f8cece2	1.1009791
52	0x3f897236	1.073798
53	0x3f95551a	1.1666596
54	0x3f6ae55b	0.9175622
55	0x3f97cbce	1.1859071
56	0x3fca4506	1.5802314
57	0x3fe81ddc	1.8134112
58	0x3f8303b1	1.0235502
59	0x3fce2436	1.6104801
60	0x3f8fe0f2	1.1240523
61	0x3f94de2a	1.1630299
62	0x3f6fda92	0.93692887
63	0x3fd8328c	1.6890426

bias f4 [64]
0	0xc032d4ce	-2.7942386
1	0xc00fece4	-2.2488337
2	0xc015369c	-2.331458
3	0xbfed7ac2	-1.8553088
4	0xc00fc11d	-2.2461617
5	0xc012daca	-2.2946038
6	0xbfcaa6cd	-1.5832154
7	0xbfda96c5	-1.7077261
8	0xc0226ff3	-2.5380828
9	0xbffeed36	-1.9916141
10	0xc002406c	-2.035182
11	0xc0379fbc	-2.8691244
12	0xc08154fb	-4.0416236
13	0xc00cb6b7	-2.198652
14	0xc03980b0	-2.8984795
15	0xc01b85d4	-2.4300432
16	0xc003affc	-2.0576162
17	0xc01d924b	-2.462054
18	0xbff6b25f	-1.9273185
19	0xbfb65c52	-1.4246924
20	0xc00ff2a3	-2.2491844
21	0xc02f6617	-2.740606
22	0xbfe316e8	-1.7741365
23	0xc03d8a76	-2.961576
24	0xbf95175e	-1.1647756
25	0xbf8dce68	-1.1078615
26	0xc03f058f	-2.9847143
27	0xbfb81d9a	-1.4384034
28	0xc03352f9	-2.8019392
29	0xc02184a8	-2.5237217
30	0xc00a713f	-2.163162
31	0xbfe64276	-1.7989032
32	0xc0080bef	-2.1257284
33	0xbfe37763	-1.7770809
34	0xc02a85a7	-2.6644075
35	0xc0201f69	-2.5019171
36	0xc030c01f	-2.7617261
37	0xc045497f	-3.0826108
38	0xc00bd047	-2.1845872
39	0xc025455a	-2.582358
40	0xbfc85323	-1.5650371
41	0xc016ee0f	-2.35828
42	0xc03449b6	-2.816999
43	0xbfff76e2	-1.9958155
44	0xc05a60ca	-3.4121575
45	0xbfd2134d	-1.641214
46	0xc0235242	-2.5518956
47	0xbf936c1c	-1.1517367
48	0xbfdb2e1d	-1.7123448
49	0xc022335d	-2.534385
50	0xc020902c	-2.5087996
51	0xc00164ea	-2.0217843
52	0xc0128497	-2.2893426
53	0xc01d4785	-2.4574902
54	0xbfef9718	-1.8717985
55	0xbf96e166	-1.1787536
56	0xc04687bb	-3.1020343
57	0xc058210b	-3.3770168
58	0xc0111db0	-2.267437
59	0xc03e068c	-2.9691496
60	0xbfc7d73c	-1.5612559
61	0xc024d52f	-2.5755117
62	0xbffbc7cf	-1.9670352
63	0xc032ed7f	-2.7957456

running_mean f4 [64]
0	0xc1da9774	-27.323952
1	0xc132d6e1	-11.177461
2	0xc2017eea	-32.37394
3	0xc23cf86d	-47.242603
4	0xc2003ec4	-32.061295
5	0xc20b1188	-34.76712
6	0xc2579db5	-53.90401
7	0xc209b5b0	-34.42743
8	0xc1d67c5f	-26.810728
9	0xc2317178	-44.36081
10	0xc23977da	-46.367043
11	0xc271caef	-60.448177
12	0xc202aa37	-32.666225
13	0xc259416b	-54.313885
14	0xc1b5be8e	-22.718044
15	0x4104de8c	8.304333
16	0xc25274a6	-52.613914
17	0xc21630ca	-37.547646
18	0xc262e255	-56.721027
19	0xc21bc82c	-38.94548
20	0xc1cfb247	-25.96205
21	0xc196d9a4	-18.85627
22	0xc2066a88	-33.604034
23	0xc1f18518	-30.189987
24	0xc2357113	-45.360424
25	0xc24b5f7a	-50.84324
26	0xc20bcedd	-34.952015
27	0xc23d4817	-47.3204
28	0xc1fdced6	-31.725994
29	0xc1fc0996	-31.50468
30	0xc1c95b07	-25.169447
31	0xc215440c	-37.316452
32	0xc1d33caa	-26.404621
33	0xc221c4ad	-40.442066
34	0xc20cd7ec	-35.21086
35	0xc196021e	-18.751034
36	0xc1403bc7	-12.014594
37	0xc176bf58	-15.421715
38	0xc2346039	-45.093967
39	0xc0da1d39	-6.816067
40	0xc20dfb22	-35.495247
41	0xc2287e2d	-42.12322
42	0xc1a5ee35	-20.741312
43	0xc2051151	-33.26691
44	0xc203ce0f	-32.95123
45	0xc1be3321	-23.774965
46	0xc2369d0d	-45.65337
47	0xc22f1ccc	-43.778122
48	0xc2595392	-54.33161
49	0xc1e41dfa	-28.514637
50	0xc18cff1b	-17.624563
51	0xc20a2d20	-34.544067
52	0xc21958e2	-38.3368
53	0xc215f3b9	-37.48801
54	0xc1f5b818	-30.71489
55	0xc2750bff	-61.261715
56	0xc1f67520	-30.80719
57	0xc1fd6033	-31.671972
58	0xc1c70352	-24.876621
59	0xc22d8124	-43.376114
60	0xc23fb0ca	-47.922646
61	0xc22747b4	-41.820023
62	0xc2047c04	-33.12111
63	0xc1ce7575	-25.807352

running_var f4 [64]
0	0x446373e0	909.81055
1	0x44557f40	853.9883
2	0x445c3d16	880.95447
3	0x44315db4	709.4641
4	0x4451bd80	838.96094
5	0x4456bf17	858.9858
6	0x448dad5a	1133.4172
7	0x443e6e6d	761.7254
8	0x444282ba	778.0426
9	0x4431704d	709.7547
10	0x44a17415	1291.6276
11	0x4480f711	1031.7208
12	0x445be5b3	879.58905
13	0x446afc7f	939.94525
14	0x4444958a	786.33655
15	0x445401ce	848.0282
16	0x44886869	1091.2628
17	0x444e9c26	826.4398
18	0x4498628e	1219.0798
19	0x444dcaa0	823.166
20	0x4433cbf4	719.18677
21	0x4440827e	770.03894
22	0x44417ff6	773.9994
23	0x443b0d1c	748.20483
24	0x4480a1b3	1029.0531
25	0x44a156f5	1290.7174
26	0x44817c31	1035.881
27	0x447bb7ee	1006.8739
28	0x443621b2	728.5265
29	0x444e42bb	825.04266
30	0x44362ee1	728.7325
31	0x44383c47	736.94183
32	0x44310dab	708.21356
33	0x442bae61	686.7247
34	0x4451c51c	839.07983
35	0x445026f5	832.6087
36	0x4434bd34	722.9563
37	0x443d519e	757.27527
38	0x446490b3	914.2609
39	0x4460a96e	898.64734
40	0x4440526e	769.28796
41	0x444f4b90	829.18066
42	0x443d80fd	758.01544
43	0x4430f2d9	707.7945
44	0x444c91bb	818.27704
45	0x444e24e5	824.5765
46	0x447cc7bc	1011.12085
47	0x446a17f4	936.37427
48	0x44455d85	789.46124
49	0x444eacf0	826.70215
50	0x445d4f65	885.24054
51	0x4454e489	851.57086
52	0x4446128b	792.28973
53	0x444f52d4	829.2942
54	0x4435fa0e	727.9071
55	0x44bbe27f	1503.078
56	0x44487f51	801.9893
57	0x445968c1	869.6368
58	0x444160c4	773.51196
59	0x4486fae9	1079.841
60	0x446b08b0	940.13574
61	0x4476fac6	987.91833
62	0x442a6384	681.55493
63	0x444b46f0	813.1084
